app/src/main/ml/hairloss_model.tflite (tflite, 17896 bytes, 8 tensors)

sequential_1/dense_7/BiasAdd/ReadVariableOp f4 [4]
0	0x3e1b194f	0.15146373
1	0x3dd5f396	0.10446851
2	0xbe2c47a4	-0.16824204
3	0xbe14a66d	-0.14516611

sequential_1/dense_6/BiasAdd/ReadVariableOp f4 [32]
0	0xbcf0a60e	-0.029376056
1	0x3d77b694	0.060476854
2	0x3e33853e	0.17531297
3	0xbd32f4be	-0.043690436
4	0x3d20c578	0.03925082
5	0xbdb90827	-0.09034758
6	0x3e82a553	0.25516757
7	0x3c4d3483	0.012524727
8	0x3b63c0c2	0.0034752344
9	0x3e67f94c	0.22653693
10	0xbde74e21	-0.11294199
11	0x3e0fc9a8	0.1404177
12	0xbdd32c4d	-0.10311184
13	0x3d859616	0.06522767
14	0x3e3a8d40	0.18217945
15	0x3c18c61f	0.0093245795
16	0x3e18e10e	0.14929602
17	0xbd20a722	-0.03922189
18	0xbd5637e7	-0.052299406
19	0x3d6500c4	0.055908933
20	0xbc39b933	-0.011335659
21	0xbd2a4fd9	-0.041580055
22	0xbdec899a	-0.11549683
23	0xbc1d789e	-0.009611277
24	0xbe11ee4c	-0.1425106
25	0xbe1e2ea4	-0.1544748
26	0x3e49f22f	0.19721292
27	0xbceddfc2	-0.02903736
28	0xbd64c5d3	-0.055852722
29	0xbb9cf9f7	-0.0047905403
30	0x3e27f1da	0.16400853
31	0x3b5e7c11	0.003394846

sequential_1/dense_5/BiasAdd/ReadVariableOp f4 [32]
0	0x3e98973f	0.29802892
1	0xbd4f1c0c	-0.050563857
2	0x3e806787	0.25078985
3	0x3cbd8819	0.023136185
4	0xbd9afc07	-0.07567602
5	0xbd8eefa8	-0.069793046
6	0xbd906f5d	-0.07052491
7	0xbd878f7a	-0.06619163
8	0xbe0a2fbc	-0.13494772
9	0xbde562d8	-0.112004936
10	0xbddb0175	-0.10693637
11	0xbd8c24c2	-0.068429485
12	0x3ded8050	0.11596739
13	0x3e7e56f7	0.24837862
14	0x3dcf5034	0.101227194
15	0xbe07a988	-0.13248265
16	0xbe266bf7	-0.16252123
17	0x3e6d246d	0.23158427
18	0xbd8399d4	-0.06425825
19	0x3da03f8e	0.07824622
20	0x3e696ab9	0.22794618
21	0x3e8ab838	0.27093673
22	0x3d97eda0	0.0741837
23	0x3e490e10	0.1963427
24	0x3d890fac	0.06692442
25	0x39f5639c	0.00046804256
26	0xbcec2b81	-0.028829338
27	0x3e82d038	0.25549483
28	0x3e65cb3b	0.22440808
29	0xbcdd0953	-0.026981985
30	0x3e808b21	0.25106147
31	0x3e312811	0.1730044

sequential_1/dense_4/BiasAdd/ReadVariableOp f4 [64]
0	0xbe6db15b	-0.23212187
1	0xbc36ab7f	-0.011149286
2	0x3e9e3eaf	0.309072
3	0x3df5d731	0.12003935
4	0x3e8a92e4	0.27065194
5	0xbe25d559	-0.16194667
6	0xbd437b75	-0.04772516
7	0xbdc5ab88	-0.096518576
8	0x3d70e385	0.05881073
9	0xbd2544cc	-0.040348813
10	0xbd5dd137	-0.0541546
11	0xbe19823a	-0.14991084
12	0x3e828c21	0.25497535
13	0xbae9b15f	-0.001782935
14	0x3e4bf11f	0.19916199
15	0x3ebd9c14	0.3703314
16	0x3e4eff9c	0.20214695
17	0x3cd87803	0.026424414
18	0x3e870413	0.26370296
19	0xbdb1ad00	-0.08675575
20	0x3e230366	0.15919265
21	0xbd0fbf4b	-0.03509454
22	0x3e39b3b2	0.18134955
23	0x3daa59ea	0.08317931
24	0xbc4be051	-0.012443618
25	0xbd3d9502	-0.046284683
26	0xbd3bde23	-0.045866143
27	0x3d0ffe96	0.0351549
28	0x3dc32493	0.0952846
29	0xbc9d6c9c	-0.019216828
30	0x3e4cb6b5	0.19991572
31	0x3dd5db8c	0.10442266
32	0x3d10892f	0.03528708
33	0xbd12b59a	-0.03581772
34	0x3d352838	0.04422781
35	0xbea4c893	-0.32184276
36	0x3e7710ad	0.24127455
37	0xbda5ded5	-0.080991425
38	0xbe4696e0	-0.19393492
39	0x3c503996	0.012709042
40	0x3e8e443f	0.27786443
41	0x3e525462	0.20540002
42	0x3d812149	0.06305177
43	0x3c59d137	0.01329451
44	0x3d011a26	0.031519078
45	0x3e8f82cd	0.2802948
46	0x3ec5524f	0.3853936
47	0xbd6d16f3	-0.057883214
48	0x3dfdc01c	0.123901576
49	0x3c8a3c07	0.016874326
50	0x3d9202ba	0.07129426
51	0xbdd0af4d	-0.10189686
52	0x3d771ba8	0.06032911
53	0x3d6e3839	0.058159087
54	0xbe082967	-0.13297044
55	0x3e53a605	0.206688
56	0x3e296daa	0.1654574
57	0xbe5a81a9	-0.21338524
58	0x3cc3440f	0.023836164
59	0x3ea0adf4	0.31382716
60	0xbd882c7b	-0.06649109
61	0x3e9c6997	0.3054931
62	0xbe55492f	-0.20828699
63	0xbe738ea7	-0.23784886

sequential_1/dense_4/MatMul f4 [64, 8]
0	0xbcd298e0	-0.025707662
1	0x3e80e49f	0.25174424
2	0xbd666cb2	-0.056256004
3	0x3d889636	0.066692755
4	0xbcff921b	-0.031197598
5	0xbe6bdb48	-0.23032868
6	0x3dcf9c81	0.101372726
7	0x3ea487a3	0.32134733
8	0xbe9ef092	-0.31042916
9	0x3e2d6955	0.16934712
10	0xbe911e48	-0.28343415
11	0xbe8f030b	-0.2793201
12	0xbc4d1a80	-0.012518525
13	0x3e62e910	0.22159219
14	0xbda83a41	-0.08214236
15	0x3e2caaf2	0.16862085
16	0xbcdfca96	-0.02731828
17	0xbf072708	-0.5279393
18	0xbd9c3fb6	-0.076293394
19	0xbea74405	-0.32669082
20	0xbe24a9a4	-0.16080338
21	0x3e896186	0.26832217
22	0x3e25e118	0.16199148
23	0xbde6cc49	-0.11269433
24	0xbb877324	-0.004133599
25	0xbd520a60	-0.051279426
26	0x3e1f3ba5	0.15550096
27	0xbdd02e1e	-0.10165046
28	0xbe94b424	-0.29043686
29	0x3e92aebf	0.28648946
30	0x3da64e06	0.081203505
31	0xbe8f8df7	-0.28037998
32	0x3e1c0a8d	0.152384
33	0x3e57a3b2	0.21058539
34	0xbe206a33	-0.15665512
35	0x3e3b81ee	0.18311283
36	0xbe460034	-0.19336015
37	0x3ecdc899	0.40192106
38	0x3e6f71b1	0.23383214
39	0xbde98c3c	-0.11403701
40	0x3e2038f4	0.15646726
41	0x3e8941f9	0.26808146
42	0xbd98adc8	-0.07455021
43	0x3c73213a	0.014839465
44	0x3db7d2f8	0.08975786
45	0xbe0d6301	-0.13807298
46	0x3dfe3cde	0.12413953
47	0xbe440f50	-0.19146466
48	0x3e0c69b6	0.137122
49	0xbde1b744	-0.11021283
50	0xbd341376	-0.043963872
51	0xbaa4bea9	-0.0012569028
52	0x3dc6c088	0.09704691
53	0xbe4b8a23	-0.19876914
54	0x3daa81af	0.083255164
55	0xbe44111e	-0.19147155
56	0x3d7f13b1	0.06227464
57	0x3ea048cf	0.3130555
58	0xbc3d86ba	-0.011567766
59	0xbe870017	-0.26367256
60	0xbde50a7c	-0.1118364
61	0x3dc55054	0.09634462
62	0x3dc623bd	0.09674785
63	0xbee797fb	-0.4523314
64	0x3e5d180a	0.21591201
65	0x3eb7bb74	0.35885203
66	0xbe5d835a	-0.21632138
67	0xbc3206d7	-0.010865889
68	0xbd686bd9	-0.056743477
69	0xbcf9fa23	-0.030514782
70	0xbe5c53f8	-0.21516407
71	0xbce78ff3	-0.028266883
72	0x3c81ee9c	0.015860848
73	0x3dbd5da6	0.09246378
74	0x3ba49269	0.0050223363
75	0xbe0832b6	-0.13300595
76	0x3e70bb5d	0.23508973
77	0x3db3e7e3	0.08784463
78	0x3eccb0f7	0.39978763
79	0xbb84742b	-0.0040421686
80	0xbe40285f	-0.187654
81	0xbd884dc7	-0.0665546
82	0x3e278232	0.1635826
83	0x3e34f378	0.17671001
84	0xbe03b7a2	-0.12863019
85	0x3b71fe90	0.0036925413
86	0xbd2488b8	-0.040169448
87	0xbcb12304	-0.021623142
88	0xbe7d49d4	-0.24735194
89	0xbdc22d48	-0.09481293
90	0x3e5dadbc	0.21648306
91	0x3df327f6	0.11872856
92	0x3e52f140	0.20599842
93	0xbf123d0e	-0.5712441
94	0xbe0556e8	-0.13021433
95	0x3eb9a62d	0.36259595
96	0x3e4fdd50	0.20299268
97	0xbe5fea62	-0.21866754
98	0x3d8ec194	0.06970516
99	0xbe5b7b2b	-0.21433704
100	0xbec41f7e	-0.38305277
101	0x3ec33607	0.38127157
102	0xbeb48d2d	-0.3526396
103	0x3e12f876	0.14352593
104	0xbe12a239	-0.14319696
105	0xbe139b2c	-0.14414662
106	0x3e546cba	0.20744601
107	0xbd81411b	-0.06311246
108	0xbeac7dfd	-0.3368987
109	0xbe3d3707	-0.18478023
110	0xbe28bc67	-0.1647812
111	0x3eaff716	0.343682
112	0x3e69fa70	0.2284944
113	0xbe18ff9f	-0.14941262
114	0x3d904c3b	0.0704579
115	0xbe0c58d8	-0.13705766
116	0xbeb40182	-0.351574
117	0x3e030d5a	0.12798062
118	0x3e76a023	0.24084525
119	0xbe2e9849	-0.1705028
120	0xbd85d106	-0.06534009
121	0xbeb1710d	-0.34656563
122	0xbda64070	-0.08117759
123	0xbd3cb8b0	-0.04607457
124	0xbe8a9792	-0.27068764
125	0x3debe3ba	0.11518045
126	0x3e0c3ccd	0.13695069
127	0xbe6ba082	-0.23010448
128	0xbe88aaa7	-0.26692697
129	0x3dcf7b9c	0.101309985
130	0x3e161ae2	0.14658692
131	0xbda01455	-0.07816378
132	0xbe418c74	-0.18901235
133	0x3e2b159e	0.16707465
134	0x3e315e7c	0.17321199
135	0xbed03adb	-0.40669903
136	0xbf195d9d	-0.5990847
137	0x3da3ab6c	0.079916805
138	0xbe0b589d	-0.13608022
139	0x3eb292b1	0.34877542
140	0x3ea1fa6b	0.31636366
141	0xbce8dbbc	-0.02842509
142	0xbd955939	-0.072924085
143	0x3e8d5647	0.27604887
144	0x3cfe9013	0.03107456
145	0xbe1d64bb	-0.15370457
146	0x3dc2a7a5	0.09504632
147	0x3e09ee32	0.1346977
148	0xbe87a455	-0.26492563
149	0x3e9cfc90	0.3066144
150	0xbeff5685	-0.49870697
151	0xbda4c40c	-0.080452055
152	0x3d848716	0.06471078
153	0xbe338293	-0.17530279
154	0x3e2cc324	0.16871315
155	0x3e6c9f03	0.23107533
156	0x3e4206a5	0.18947847
157	0xbcaa6efb	-0.020804873
158	0xbdb2f5ab	-0.08738264
159	0xbd8c9789	-0.068648405
160	0xbda2c2a5	-0.07947282
161	0xbeadbd34	-0.33933413
162	0xbe124195	-0.1428283
163	0x3e92a3c9	0.28640583
164	0x3e9af082	0.30261618
165	0xbe078849	-0.13235582
166	0x3e90ec0f	0.28305098
167	0x3f054aca	0.52067244
168	0xbf0553ba	-0.5208088
169	0x3e081197	0.1328796
170	0xbe12600b	-0.1429445
171	0x3e446dfd	0.19182582
172	0x3eae27cd	0.3401474
173	0xbcd04ea4	-0.025428124
174	0x3e423501	0.18965532
175	0x3e6e1447	0.23249923
176	0x3e5feaa5	0.21866854
177	0x3e25c037	0.16186605
178	0x3d896026	0.06707792
179	0xbe95972b	-0.29216895
180	0xbe9e7a20	-0.3095255
181	0x3e956a22	0.29182535
182	0x3d893b6d	0.06700788
183	0xbeed8860	-0.46393108
184	0x3ea8c7e4	0.32965004
185	0xbec58724	-0.38579667
186	0xbe697f30	-0.22802424
187	0x3e3eaa29	0.18619598
188	0x3d263931	0.040581886
189	0xbc2a3184	-0.010387782
190	0x3e86e73b	0.2634829
191	0x3df1883b	0.11793562
192	0xbee860be	-0.45386308
193	0xbe7e8940	-0.24857044
194	0xbd98efcf	-0.07467615
195	0x3eded3ad	0.4352087
196	0x3e3882fd	0.18018718
197	0xbd714698	-0.058905214
198	0x3ed8853f	0.4228916
199	0x3e31eaa1	0.1737466
200	0xbe5049ce	-0.20340654
201	0xbc999523	-0.018747872
202	0xbde71a8f	-0.112843625
203	0xbe56630a	-0.20936218
204	0x3e1b1ade	0.15146968
205	0xbdb36cec	-0.087610096
206	0x3e9eae43	0.30992326
207	0x3e0d1d34	0.13780671
208	0xbe810473	-0.25198707
209	0x3d9309a3	0.071795724
210	0x3e547cbd	0.20750709
211	0x3e19c4d4	0.1501649
212	0x3e8684b5	0.26273122
213	0x3e4b0d1b	0.19829218
214	0xbe41594a	-0.18881717
215	0xbe43009b	-0.190432
216	0x3e08b841	0.13351537
217	0x3e4d9da7	0.20079671
218	0x3db025e6	0.086009786
219	0xbe3137ef	-0.17306493
220	0xbe99cd24	-0.30039322
221	0x3e815cd8	0.25266147
222	0x3eb9a0c6	0.36255473
223	0xbde1d32c	-0.11026606
224	0xbdc04769	-0.093886204
225	0xbe3a71bd	-0.1820745
226	0x3e3f0335	0.18653567
227	0xbd80807c	-0.062745064
228	0xbe6f744c	-0.23384207
229	0x3d951380	0.0727911
230	0xbed876e3	-0.42278203
231	0xbe36fde6	-0.17870292
232	0xbda88ba2	-0.08229758
233	0x3ba0a2ea	0.0049022334
234	0x3e459581	0.19295312
235	0xbe3e451c	-0.1858105
236	0x3e6c96a3	0.23104338
237	0x3c000e3e	0.007815896
238	0x3d512746	0.051062845
239	0xbe9c3368	-0.3050797
240	0x3e5abbab	0.21360652
241	0xbe7da755	-0.24770863
242	0xbc37846b	-0.0112010045
243	0xbcece330	-0.028916925
244	0xbe94032d	-0.28908673
245	0x3de19f69	0.11016733
246	0xbdf8d146	-0.12149291
247	0xbc30ddc7	-0.010795063
248	0xbd29e432	-0.04147739
249	0x3eb49754	0.35271704
250	0xbd3431b9	-0.04399273
251	0xbe202796	-0.15640101
252	0xbda385ca	-0.079845026
253	0x3e7486fd	0.23879619
254	0xbdb70cc5	-0.089379825
255	0xbec82f3c	-0.39098537

sequential_1/dense_5/MatMul f4 [32, 64]
0	0xbdd5e205	-0.104435004
1	0x3e83751d	0.25675288
2	0x3ee6786f	0.4501376
3	0x3cd7a180	0.026322126
4	0xbdd998cb	-0.10624846
5	0xbe12acb8	-0.143237
6	0xbe20f1a0	-0.15717173
7	0xbd29e0a6	-0.041474007
8	0x3e0af034	0.13568193
9	0x3e2b79ca	0.16745678
10	0x3dad6379	0.084662385
11	0x3e3c5534	0.18391877
12	0x3e4ff440	0.20308018
13	0x3ea040cd	0.3129944
14	0x3d3d4368	0.04620686
15	0x3ebf36be	0.37346452
16	0x3e04eb73	0.12980442
17	0xbda45123	-0.08023288
18	0x3e9d0b1b	0.30672535
19	0x3e53341e	0.2062535
20	0xbe6a5b23	-0.22886328
21	0x3c782764	0.01514611
22	0xbe38aa90	-0.18033814
23	0x3e3b0fdc	0.18267769
24	0xbdbc3d9c	-0.091914386
25	0xbe0295dc	-0.1275248
26	0xbc99e346	-0.01878513
27	0x3dc0fe06	0.09423451
28	0x3e8b47b7	0.27203152
29	0xbb3d6ad6	-0.002890279
30	0x3ea958ad	0.33075467
31	0xbcab7d4e	-0.020933773
32	0x3c797ff3	0.015228259
33	0x3dc5cd38	0.09658283
34	0x3cce55df	0.02518743
35	0xbd15072b	-0.03638379
36	0x3e9ce419	0.30642775
37	0x3ec4403e	0.38330263
38	0xbd61e349	-0.055148397
39	0xbebbeaff	-0.36702725
40	0x3e063eea	0.13109937
41	0x3ca1b96e	0.01974174
42	0x3e639850	0.22226071
43	0x3d36cf2a	0.04463116
44	0x3cd86053	0.026413118
45	0xbe38b48c	-0.18037623
46	0x3e1748f5	0.14773925
47	0x3d7a6b3d	0.061137427
48	0x3df792a2	0.12088515
49	0xbe50e829	-0.20401062
50	0x3d9d4593	0.07679286
51	0xbe8161e1	-0.25269988
52	0x3e2e98bd	0.17050453
53	0x3d9f4f62	0.07778813
54	0xbe51b166	-0.20477828
55	0x3cb7b3cd	0.022424603
56	0x3e0f0094	0.13965064
57	0xbd825aa9	-0.06364948
58	0xbcf3953c	-0.029734246
59	0x3ead2081	0.3381386
60	0xbe75661e	-0.23964736
61	0x3e09dad1	0.13462378
62	0xbe0d0423	-0.1377111
63	0x3d5e270f	0.054236468
64	0xbe652a43	-0.22379403
65	0xbe671536	-0.22566685
66	0xbdb8ab8d	-0.09017096
67	0xbe406483	-0.18788342
68	0x3e35a2cd	0.17737885
69	0x3e0ac049	0.13549913
70	0x3e35723b	0.17719357
71	0xbd350ea8	-0.04420343
72	0xbe8c2294	-0.2737013
73	0x3e36db75	0.17857154
74	0x3e3349cc	0.1750862
75	0xbe19c7fa	-0.15017691
76	0x3e24dd44	0.16100031
77	0xbe13f53a	-0.14449015
78	0x3e3fdef8	0.187374
79	0xbde081d9	-0.109622665
80	0xbde46459	-0.11151952
81	0xbe3ca270	-0.1842134
82	0x3df96b34	0.121786505
83	0xbca0d771	-0.01963398
84	0xbd015dbd	-0.031583536
85	0x3db7aa0b	0.0896798
86	0xbe249c2a	-0.16075197
87	0x3d9860a9	0.074403115
88	0x3d5f7266	0.05455246
89	0xbdd4497b	-0.10365578
90	0xbe877345	-0.2645513
91	0xbd520f4e	-0.051284127
92	0xbda6d18b	-0.08145436
93	0x3d7141c9	0.05890063
94	0x3e5b683a	0.21426478
95	0x3d9a4063	0.07531812
96	0x3e5a8f10	0.21343637
97	0x3d844864	0.0645912
98	0x3e8c19fd	0.27363577
99	0x3d71727a	0.058947064
100	0xbdedc889	-0.11610515
101	0xbe40e1e9	-0.18836178
102	0xbd9305a3	-0.071788095
103	0x3e0ff6ca	0.14058986
104	0x3d43fa06	0.047845863
105	0xbe3ffc71	-0.18748643
106	0xbcbb3360	-0.022851646
107	0xbe2f7ebb	-0.17138188
108	0xbd2a056d	-0.04150908
109	0xbe776810	-0.2416079
110	0xbe36b3b5	-0.1784199
111	0x3d448623	0.047979485
112	0xbd166b5e	-0.036723487
113	0x3dee7b74	0.116446406
114	0xbe128421	-0.14308216
115	0xbcf0a6bb	-0.029376378
116	0xbe42a15d	-0.19006868
117	0xbd8e881a	-0.06959553
118	0x3d06b3c8	0.032886297
119	0xbe5a5051	-0.21319701
120	0x3d6fccdf	0.05854499
121	0x3d917c95	0.0710384
122	0xbd5f7092	-0.054550715
123	0xbd0ccdb0	-0.034375846
124	0xbdde08b1	-0.108415015
125	0xbe3d9006	-0.18511972
126	0xbe0f9d1c	-0.14024776
127	0x3da37bf9	0.0798263
128	0xbe9003ce	-0.28127903
129	0x3e124d1e	0.1428723
130	0x3ecbcd26	0.39804953
131	0x3cfadcc9	0.030622857
132	0x3e667541	0.22505666
133	0xbe05cd43	-0.13066582
134	0x3eb40ee2	0.35167605
135	0xbd24aba2	-0.040202744
136	0xbb8f82af	-0.0043795924
137	0x3e5cf12c	0.21576375
138	0xbe73c834	-0.2380684
139	0xbe434db6	-0.19072613
140	0x3ec11445	0.37710777
141	0xbe2ca3d9	-0.16859378
142	0x3e988943	0.29792222
143	0x3db0723e	0.0861554
144	0x3df1350a	0.117776945
145	0xbcce9a94	-0.025220193
146	0x3d84f0ef	0.06491267
147	0xbc95b17b	-0.018273106
148	0x3e0a185c	0.13485855
149	0x3ceb6484	0.028734453
150	0x3e9401d1	0.28907636
151	0x3e63e06d	0.2225358
152	0xbe22931e	-0.15876433
153	0xbe0bf319	-0.13666953
154	0x3c6a1adf	0.014288633
155	0xbd4944ad	-0.04913776
156	0xbd7243d8	-0.059146732
157	0x3dc08efa	0.094022706
158	0x3de92ca6	0.11385469
159	0x3df8621f	0.1212809
160	0x3e88c25c	0.26710784
161	0xbd94a56d	-0.07258115
162	0x3e09346c	0.13398904
163	0xbe401a30	-0.1875999
164	0xbe019f03	-0.12658314
165	0x3d9917c2	0.074752346
166	0x3dcab46b	0.09897693
167	0xbe3bdbbe	-0.18345544
168	0x3e8b1ce8	0.2717049
169	0x3cc1e69e	0.023669537
170	0xbda29b5d	-0.079397894
171	0xbcf81cda	-0.030287195
172	0x3db92d77	0.09041875
173	0x3ec62b7d	0.38705054
174	0x3efe7e35	0.49705663
175	0x3dd96ad9	0.10616083
176	0x3d9ca13f	0.07647943
177	0xbdb118eb	-0.08647331
178	0x3ccf43b7	0.025300844
179	0xbd98a479	-0.07453246
180	0x3dff1c1a	0.12456532
181	0xbc1fc29f	-0.009750991
182	0x3cf93567	0.030420972
183	0x3ea10d81	0.31455615
184	0x3e3396ec	0.17538041
185	0xbe6f98c8	-0.23398125
186	0x3cff72a1	0.031182589
187	0x3e20ddd6	0.15709624
188	0xbe97d695	-0.296559
189	0x3eb09a2a	0.34492618
190	0xbe48ff4a	-0.19628635
191	0xbd9afdf8	-0.07567972
192	0xbe781920	-0.24228334
193	0x3e5a8697	0.21340404
194	0xbe8431a9	-0.25819138
195	0xbc45e141	-0.0120776305
196	0x3ea06182	0.31324393
197	0x3e09801b	0.13427775
198	0x3e37352b	0.17891376
199	0x3e4c5f29	0.19958176
200	0xbe3e2372	-0.18568209
201	0x3e39a0d5	0.18127759
202	0xbe4ea497	-0.20179974
203	0x3e2acab8	0.16678894
204	0xbdd4adb1	-0.103846915
205	0x3d9c27f1	0.07624806
206	0x3dfc0ae5	0.123067655
207	0xbe8b4e6f	-0.27208278
208	0xbe7e66e0	-0.24843931
209	0xbbb49e2e	-0.0055120206
210	0xbbfcebb6	-0.0077185286
211	0xbe62f870	-0.22165084
212	0x3e944804	0.28961194
213	0x3e054d78	0.13017833
214	0x3e236424	0.1595617
215	0x3e9f84aa	0.31155902
216	0x3e2153d3	0.15754633
217	0x3e1b3696	0.15157542
218	0x3cb1a5f6	0.021685582
219	0xbe1e743b	-0.15474026
220	0xbe480834	-0.19534379
221	0xbe5ebd1b	-0.21751826
222	0xbd888f5b	-0.06667968
223	0x3e6f6ec7	0.23382102
224	0xbe3766bf	-0.17910288
225	0x3dc93843	0.09825184
226	0x3e2803c8	0.16407692
227	0xbd127df7	-0.03576466
228	0x3d5f599d	0.05452882
229	0xbaaac516	-0.0013028707
230	0xbe273f51	-0.16332747
231	0x3dc31972	0.09526338
232	0xbabc57bf	-0.0014369412
233	0x3e4d833d	0.20069595
234	0x3cbe9410	0.023263961
235	0x3e0415a8	0.12898886
236	0x3d582e1b	0.052778345
237	0x3e1aaa7e	0.151041
238	0xbe33536e	-0.17512295
239	0xbe0985d7	-0.13429962
240	0xbe708e82	-0.23491862
241	0x3e0dc4db	0.13844626
242	0x3da56d77	0.080775194
243	0x3cae6deb	0.021292647
244	0xbe4a80ec	-0.19775742
245	0xbd77ebde	-0.060527675
246	0x3e7baa8d	0.24576779
247	0x3d7e152c	0.06203191
248	0xbe44adf5	-0.19206984
249	0xbe2284dc	-0.15870994
250	0xbc12f73f	-0.008970081
251	0xbe4bae59	-0.19890727
252	0x3e0dc00c	0.13842791
253	0x3db27736	0.08714144
254	0xbe7c6022	-0.24646047
255	0xbdbdcc3a	-0.09267469

sequential_1/dense_6/MatMul f4 [32, 32]
0	0xbe07c71f	-0.13259552
1	0x3e263889	0.16232504
2	0x3c4f4ef0	0.0126530975
3	0x3d067655	0.032827694
4	0x3caabf1d	0.020843083
5	0xbd8d3e7c	-0.068966836
6	0xbdf4231f	-0.11920761
7	0x3e0e62ec	0.13904923
8	0x3bfd96f3	0.007738942
9	0xbea98e71	-0.33116487
10	0x3e62d87f	0.22152899
11	0x3e816589	0.25272778
12	0xbe9dbbcd	-0.30807343
13	0xbe5d1271	-0.21589066
14	0xbdc801b9	-0.097659536
15	0xbe4ef8fc	-0.20212168
16	0x3e0be363	0.1366096
17	0xbbe278d5	-0.006911377
18	0xbe9ba7b9	-0.304014
19	0xbd16967e	-0.036764614
20	0xbe9ef15a	-0.31043512
21	0xbe9e7ced	-0.30954686
22	0xbe439da5	-0.19103105
23	0xbdccb404	-0.09995273
24	0xbd201a00	-0.039087296
25	0xbd70744c	-0.05870466
26	0x3e8e253c	0.27762783
27	0x3e56a6b4	0.2096203
28	0xbddaa84d	-0.10676632
29	0x3e5291a2	0.20563367
30	0xbea1eed8	-0.31627536
31	0xbdcccb3c	-0.099997014
32	0xbe5971ac	-0.21234769
33	0x3e8c4047	0.2739279
34	0x3eb5a64d	0.3547844
35	0xbe4adccf	-0.19810794
36	0x3dc3ed8c	0.09566793
37	0x3d9cd0c7	0.076570086
38	0x3de316a6	0.11088304
39	0xbe2dcebc	-0.16973394
40	0xb8a07511	-7.6512e-05
41	0x3e26a151	0.16272475
42	0xbe1efedc	-0.15526909
43	0xbd13a124	-0.036042348
44	0xbe5a6dc8	-0.2133094
45	0xbe4ee64f	-0.20205043
46	0xbd1a1f18	-0.03762731
47	0x3e91998e	0.28437465
48	0xbeacad9f	-0.33726212
49	0xbd30dd6b	-0.04317991
50	0x3daa9f22	0.083311334
51	0x3e9695aa	0.2941106
52	0x3cdea2d1	0.027177246
53	0x3e481c75	0.19542105
54	0xbd9bb8a8	-0.0760358
55	0x3e0f8d70	0.14018798
56	0x3ddfd669	0.10929567
57	0xbd5f419d	-0.054505933
58	0x3e0b728c	0.13617915
59	0xbd82bf9f	-0.06384205
60	0xbee594b4	-0.44840014
61	0x3e331cd8	0.17491472
62	0x3e0859cd	0.13315506
63	0x3ea31906	0.3185503
64	0x3ea95358	0.330714
65	0x3c56ccd4	0.013110358
66	0x3e395fdf	0.18102978
67	0x3d3a942f	0.045551475
68	0xbe6ee3ec	-0.23329133
69	0xbe0a5d4d	-0.13512154
70	0xbe1eded6	-0.15514693
71	0x3e37dcff	0.17955397
72	0x3e55273a	0.20815745
73	0x3e0008a8	0.12503302
74	0xbd699cce	-0.057034306
75	0xbdb269d3	-0.087115906
76	0xbc1d95c2	-0.009618225
77	0x3dc552a1	0.09634901
78	0xbe068b75	-0.13139136
79	0xbe6e2c20	-0.2325902
80	0x3c7ed12b	0.015552799
81	0x3e656476	0.22401604
82	0x3e91e8dc	0.2849797
83	0x3e1e4896	0.15457377
84	0xbcc3ce7d	-0.023902172
85	0x3e8fe652	0.28105408
86	0xbe773148	-0.24139893
87	0xbe067cea	-0.13133588
88	0xbe315cf2	-0.17320612
89	0x3e63a321	0.22230197
90	0x3e6a6d0e	0.22893164
91	0x3e94740c	0.28994787
92	0x3e591573	0.21199588
93	0xbe684927	-0.22684155
94	0x3e873b5d	0.26412478
95	0x3e1596b9	0.14608277
96	0x3e0999e1	0.13437606
97	0x3e4a4209	0.19751753
98	0x3e11febe	0.14257333
99	0x3e1d7716	0.15377459
100	0x3e7a0fcb	0.24420087
101	0xbe72d73b	-0.23714916
102	0xbdb8d9be	-0.09025906
103	0xbdc8b334	-0.09799805
104	0x3e8b9d45	0.27268425
105	0xbe7a6bf4	-0.24455243
106	0x3e01020b	0.12598436
107	0x3e7b3277	0.2453097
108	0xbe86c317	-0.26320717
109	0x3e4aa892	0.19790867
110	0x3e2bb765	0.16769178
111	0xbd8bf956	-0.068346664
112	0xbe07c56e	-0.13258907
113	0xbdd99f9c	-0.10626146
114	0x3eb5c40a	0.35501128
115	0x3e5fcd71	0.21855713
116	0xbec65005	-0.38732925
117	0x3de57268	0.11203462
118	0xbb4ab5ce	-0.0030931118
119	0xbe86314f	-0.26209494
120	0xbe19b6e9	-0.15011181
121	0x3db6658b	0.089060865
122	0xbe5c239a	-0.21497956
123	0xbe387708	-0.18014157
124	0xbe99e01f	-0.30053803
125	0x3dc33d06	0.09533124
126	0xbe135016	-0.14386019
127	0xbd6e92ce	-0.058245473
128	0x3e7ff0fb	0.2499427
129	0xbe06cbda	-0.131637
130	0x3ed3a5a8	0.41337323
131	0xbda5b6c9	-0.08091504
132	0x3e5431ff	0.20722197
133	0xbe2b0480	-0.16700935
134	0x3da1e1cf	0.07904398
135	0x3d283358	0.04106459
136	0xbd9f03e3	-0.07764413
137	0x3d900900	0.070329666
138	0x3e724043	0.23657326
139	0x3debc18d	0.11511526
140	0x3e545048	0.2073375
141	0x3e3bf603	0.18355565
142	0xbe6a506c	-0.22882241
143	0xbd230c09	-0.0398064
144	0xbd20b1ca	-0.039232053
145	0x3e45899c	0.19290775
146	0xbd29ed3e	-0.041486017
147	0xbe8b5cd4	-0.2721926
148	0xbe13a12c	-0.14416951
149	0x3c80c1c0	0.015717387
150	0xbe808e9d	-0.25108805
151	0x3e14a1c7	0.14514838
152	0x3e8927fc	0.26788318
153	0x3e16009b	0.14648668
154	0x3db11e63	0.08648374
155	0xbe137047	-0.14398299
156	0xbe9dfd2a	-0.3085721
157	0xbe8af79e	-0.27142042
158	0x3da5512f	0.08072125
159	0xbc0aaead	-0.0084644975
160	0x3e9eb10c	0.3099445
161	0xbe430ff3	-0.19049053
162	0xbe1af82f	-0.15133737
163	0xbe45311d	-0.19257016
164	0x3deb1693	0.11478915
165	0x3e272052	0.16320923
166	0xbd4ed467	-0.05049553
167	0x3ec34f04	0.38146222
168	0xbe36377c	-0.17794603
169	0xbde9b386	-0.114111945
170	0x3dfe17a7	0.12406855
171	0x3c926368	0.017869666
172	0xbe224818	-0.15847814
173	0x3e91ad5c	0.28452575
174	0xbda31468	-0.079628766
175	0x3e88921c	0.26673973
176	0xbe4039e0	-0.18772078
177	0xbec5ad5d	-0.38608828
178	0x3e46f8f0	0.194309
179	0xbe20160e	-0.15633413
180	0xbe626b9b	-0.2211136
181	0x3e2bfc24	0.16795403
182	0xbe6c136c	-0.23054284
183	0x3e3220e8	0.17395365
184	0xbe5c566d	-0.21517344
185	0x3e6e58c0	0.23276043
186	0x3e92b6df	0.28655145
187	0x3ebe8ecc	0.3721832
188	0xbe8a8e74	-0.27061808
189	0x3ecf3ede	0.4047765
190	0x3d0c4aa5	0.034250874
191	0xbd4d2d56	-0.050092064
192	0x3e2f1145	0.17096432
193	0xbc804553	-0.015658056
194	0x3ea6f400	0.32608032
195	0xbdb2d203	-0.08731463
196	0xbda3a9c0	-0.079913616
197	0xbebcc1f1	-0.36866716
198	0xbde065d4	-0.10956922
199	0xbe25c0b3	-0.1618679
200	0xbdc2c061	-0.095093496
201	0xbed49a41	-0.41523936
202	0x3e2978f0	0.1655004
203	0xbd2668f3	-0.04062743
204	0xbe703f40	-0.23461628
205	0x3ebe3075	0.37146345
206	0x3e8c140e	0.2735905
207	0xbeb55b48	-0.35421205
208	0xbe87f606	-0.26554888
209	0x3dad140b	0.084510885
210	0xbdb02a61	-0.08601833
211	0x3d6d35d5	0.057912666
212	0x3e03712c	0.1283614
213	0x3e0f7d84	0.14012724
214	0x3eb60f1a	0.35558397
215	0xbccd8904	-0.025089748
216	0x3c84fde9	0.016234355
217	0xbe4c94be	-0.19978616
218	0xbdc77508	-0.09739119
219	0x3e49956e	0.19685909
220	0x3f140843	0.57825106
221	0xbf157bfa	-0.583923
222	0x3f10cc69	0.56561905
223	0x3eaea98c	0.3411373
224	0xbe0755ea	-0.13216367
225	0x3c6fb5c8	0.014630742
226	0xbe104871	-0.14090134
227	0xbe70867d	-0.23488803
228	0x3b1b97da	0.0023741634
229	0x3e41cfc9	0.1892692
230	0xbdb70cd2	-0.08937992
231	0xbd1a6379	-0.03769252
232	0xbe134b25	-0.14384134
233	0x3eab3eed	0.33446446
234	0xbd46b3ed	-0.048511434
235	0x3e5daa92	0.21647099
236	0x3c9b6d89	0.018973129
237	0x3e61a6eb	0.2203633
238	0x3e6a5bc5	0.2288657
239	0xbe349bfc	-0.17637628
240	0x3c802110	0.015640765
241	0xbdac31d0	-0.084079385
242	0xbe6ea1ea	-0.23303953
243	0xbe5fc885	-0.21853836
244	0xbe4cf85a	-0.20016614
245	0x3eabd94a	0.33564216
246	0xbdd71d53	-0.1050364
247	0xbe3773f1	-0.17915322
248	0x3cf2d68b	0.029643318
249	0x3db2ed5e	0.087366804
250	0xbe21c690	-0.15798402
251	0x3e830741	0.25591472
252	0xbdf00961	-0.11720539
253	0x3d837216	0.064182445
254	0xbe8c52e4	-0.2740699
255	0x3e3f7763	0.18697886

sequential_1/dense_7/MatMul f4 [4, 32]
0	0x3dafdadb	0.08586665
1	0xbe8b8d54	-0.27256262
2	0x3f00b8ae	0.502818
3	0xbd996e94	-0.07491794
4	0x3e7318f4	0.23739988
5	0xbee8c99a	-0.4546631
6	0x3f1ad0e7	0.6047501
7	0xbed89a07	-0.42305014
8	0xbdbdcbe9	-0.092674084
9	0x3ed2e6b5	0.4119164
10	0xbb938902	-0.0045024166
11	0xbd01099b	-0.0315033
12	0xbe0139a3	-0.12619643
13	0x3ea7660e	0.3269505
14	0x3e643426	0.22285518
15	0xbed29acc	-0.41133726
16	0x3bbac20e	0.0056994027
17	0x3deea4f4	0.11652556
18	0xbefb9aed	-0.49141636
19	0x3ed685ac	0.4189886
20	0xbeb3055a	-0.3496502
21	0x3b3a3396	0.0028412095
22	0xbe9b5a77	-0.30342457
23	0xbf082f2f	-0.53196996
24	0x3ee4e275	0.44704023
25	0x3cd093ef	0.025461165
26	0x3e8f4f80	0.2799034
27	0xbef97753	-0.4872385
28	0xbec0610c	-0.3757404
29	0xbe81a236	-0.2531907
30	0x3d8401d5	0.06445662
31	0xbef061d0	-0.46949625
32	0xbe9ec6aa	-0.31010944
33	0x3e046270	0.12928176
34	0x3e02fc3c	0.12791532
35	0xbe527b8b	-0.2055494
36	0x3ecd03fc	0.40042102
37	0x3d013505	0.031544704
38	0xbe706b15	-0.23478349
39	0x3e780160	0.24219275
40	0x3ebe59be	0.37177843
41	0x3ef692d0	0.48158884
42	0x3d9b2ef3	0.07577314
43	0x3e618d52	0.22026566
44	0xbd4336f2	-0.04765982
45	0x3dbb15ff	0.09135055
46	0xbe7f0848	-0.24905503
47	0x3e9a4098	0.30127406
48	0x3e7b228a	0.24524894
49	0x3e3927ab	0.18081538
50	0x3eaee100	0.34156036
51	0xbdd28c79	-0.10280699
52	0x3ebf2acb	0.37337336
53	0x3eb10bc8	0.345793
54	0x3e4a8c32	0.19780043
55	0x3e0e0099	0.13867415
56	0xbecebc60	-0.40378094
57	0x3d74afd7	0.059738006
58	0x3cf3ae2e	0.029746141
59	0x3ea92e20	0.33043003
60	0x3e00ef18	0.12591207
61	0x3d78f281	0.060778145
62	0x3e69b1b9	0.22821702
63	0xbe347f88	-0.17626774
64	0xbea1971d	-0.31560603
65	0xbe2c234a	-0.16810337
66	0x3ec50277	0.38478443
67	0x3ead4c4a	0.33847266
68	0xbc1cf02d	-0.009578747
69	0x3eee754a	0.4657386
70	0xbec58a66	-0.38582152
71	0x3e13277b	0.1437053
72	0x3e3a8283	0.18213849
73	0xbe60c98e	-0.21951887
74	0x3ed34ab3	0.41267928
75	0xbef05db3	-0.46946487
76	0xbe5194fd	-0.20466991
77	0x3bf6ccda	0.0075317444
78	0xbede711a	-0.43445665
79	0xbd7da4ef	-0.06192487
80	0xbd70dacc	-0.05880241
81	0x3e636460	0.22206259
82	0xbf289942	-0.6585885
83	0xbc9bff8a	-0.019042749
84	0x3df68a35	0.1203808
85	0x3e66dda7	0.22545491
86	0x3ea6e78a	0.32598525
87	0x3eb7aa26	0.35872
88	0x3e63bfcc	0.22241133
89	0x3eb36407	0.35037252
90	0xbe988fb7	-0.29797146
91	0xbd9fbd3b	-0.07799765
92	0x3df5e2ae	0.12006126
93	0x3e2c9d4f	0.16856883
94	0x3d888674	0.0666627
95	0xbe9518c1	-0.29120448
96	0xbe6b343b	-0.22969143
97	0xbe1dfa7e	-0.15427586
98	0xbf0625c4	-0.52401376
99	0x3e1ed06b	0.15509193
100	0x3eaf0428	0.34182858
101	0xbda614b5	-0.08109418
102	0xbc16103b	-0.009159143
103	0xbc8c3c97	-0.017118735
104	0x3be64ba6	0.007028061
105	0x3e5b46d6	0.2141374
106	0x3ec8f7ba	0.392515
107	0xbf320bca	-0.6954924
108	0x3f08ffac	0.53515124
109	0x3eadfc00	0.33981323
110	0xbed5ef34	-0.4178406
111	0xbdf5479e	-0.119765505
112	0xbee00dc6	-0.43760508
113	0x3ee0ac5a	0.43881494
114	0x3eb38bc5	0.35067573
115	0x3e6521c9	0.2237617
116	0xbd0fe5d9	-0.03513131
117	0x3e572b95	0.21012719
118	0x3ebf292c	0.373361
119	0x3e23a599	0.15981139
120	0x3e7a4d73	0.24443607
121	0x3ed55236	0.41664284
122	0xbeb535e0	-0.35392666
123	0x3d23836e	0.039920263
124	0xbe421cf1	-0.18956353
125	0xbe550e17	-0.20806156
126	0xbf040e81	-0.5158463
127	0x3d97cfdf	0.07412695
