app/src/main/ml/scalp_model.tflite (tflite, 707032 bytes, 12 tensors)

sequential_1/conv2d_4/BiasAdd/ReadVariableOp f4 [32]
-0.0033051793 0.030424196 -0.02749612 0.032720577 0.013434187 -0.04857741 0.00432119 0.019604456
-0.077594385 0.03191747 -0.012963795 0.033185158 -0.036940463 -0.068992496 -0.01607247 0.031691886
0.007646127 -0.057013806 0.031698115 0.029850544 -0.02588241 -0.009356985 0.0069471435 0.009297968
0.04384818 0.025450354 -0.062287733 0.05633981 -0.004368507 -0.03083812 -0.010778226 -0.0039184415
00000000: b59b 58bb 2a3c f93c 8b3f e1bc 0306 063d
00000010: 101b 5c3c 1bf9 46bd c598 8d3b 8699 a03c
00000020: cee9 9ebd e5bb 023d 1966 54bc 29ed 073d
00000030: e24e 17bd f04b 8dbd 6aaa 83bc 5acf 013d
00000040: 5d8c fa3b 4f87 69bd e2d5 013d 2189 f43c
00000050: 5907 d4bc 0a4e 19bc dda4 e33b 8156 183c
00000060: 269a 333d 437d d03c 6c21 7fbd 93c4 663d
00000070: b125 8fbb 3aa0 fcbc 2897 30bc 4566 80bb

sequential_1/conv2d_5/BiasAdd/ReadVariableOp f4 [64]
0.01651 2.5876856e-05 -0.022927813 -0.031030148 0.0034933526 -0.0076030423 -0.04031854 -0.0033479147
0.028599422 -0.025040736 -0.038384773 0.02807557 -0.021739155 0.011953772 0.0044842865 0.020169267
-0.0032120736 0.04390885 -0.026773646 -0.028474284 -0.023572024 -0.0067701023 -0.043584693 -0.0101067
0.03368012 -0.006940436 0.058734663 -0.045237668 -0.011476656 0.0213542 -0.052995272 -0.012477616
-0.034457114 0.028434992 -0.009131545 -0.012231602 0.010351685 -0.04113847 0.017736617 -0.023265155
-0.05395226 0.004107382 -0.005883281 -0.025862472 -0.001460478 -0.031845048 0.08006156 -0.012180052
-0.013264977 0.021193162 0.043570887 -0.04426593 0.012352942 -0.02092602 0.022466416 0.0043493207
0.028696947 0.022896359 0.01072601 -0.016738119 -0.0031906131 0.017811364 -0.004059888 -0.0009849106
00000000: fb3f 873c 2012 d937 1cd3 bbbc f032 febc
00000010: bbf0 643b f122 f9bb 0e25 25bd b068 5bbb
00000020: 5649 ea3c 3b22 cdbc 5a39 1dbd bdfe e53c
00000030: 5016 b2bc c1d9 433c ecf0 923b 053a a53c
00000040: a781 52bb c4d9 333d 6854 dbbc e742 e9bc
00000050: 1e1a c1bc bcd7 ddbb dd85 32bd 9296 25bc
00000060: 2af4 093d 996c e3bb c293 703d 224b 39bd
00000070: 9608 3cbc 01ef ae3c 9211 59bd ea6e 4cbc
00000080: e722 0dbd 80f0 e83c 7a9c 15bc 0f67 48bc
00000090: 1d9a 293c d080 28bd 624c 913c 9196 bebc
000000a0: 0cfd 5cbd 3897 863b 8ac8 c0bb 89dd d3bc
000000b0: 826d bfba f46f 02bd 51f7 a33d d78e 47bc
000000c0: 5955 59bc 489d ad3c 6377 323d 3150 35bd
000000d0: fe63 4a3c 0b6d abbc 7d0b b83c bf84 8e3b
000000e0: dc15 eb3c 2591 bb3c 26bc 2f3c 611e 89bc
000000f0: 9b19 51bb 23e9 913c cf08 85bb 1e18 81ba

sequential_1/conv2d_6/BiasAdd/ReadVariableOp f4 [64]
0.005122806 0.0026384601 -0.0014371932 0.042158052 0.011203392 -0.013046546 0.020884061 -0.021463618
0.00871014 0.009008269 0.003923134 -0.0211766 0.0080456855 0.016038185 -0.0064847185 0.009801906
0.0069824546 -0.058200542 -0.014371015 -0.0050906083 -0.0053761895 -0.008304952 -0.0063211746 -0.026137743
0.019355515 -0.01800643 0.06314714 -0.008918993 -0.015672006 -0.0028767097 -0.019732235 0.0020710018
-0.0022165624 -0.0011124182 -0.01317497 -0.01573543 -0.0062114177 0.0008619408 -0.04540393 0.008036112
-0.010031665 0.0037712308 -0.011081457 -0.017293345 0.024243122 -0.02581901 0.02957553 -0.011231258
-0.013808849 0.015731737 0.008698387 0.008870926 -0.008987999 -0.0012798584 -0.014416414 0.012962711
0.07148615 -0.007807944 -0.0217232 -0.014930823 -0.0064243376 0.070012264 0.019574406 -0.0216571
00000000: 36dd a73b 04ea 2c3b 3460 bcba ecad 2c3d
00000010: 6f8e 373c 2ec1 55bc 0d15 ab3c 78d4 afbc
00000020: fab4 0e3c 6b97 133c a28d 803b 8d7a adbc
00000030: 0dd2 033c 8362 833c c37d d4bb 2c98 203c
00000040: 13cd e43b b163 6ebd 6874 6bbc 1ecf a6bb
00000050: bf2a b0bb 7e11 08bc db21 cfbb d21e d6bc
00000060: 758f 9e3c 3882 93bc 4a53 813d f820 12bc
00000070: 9462 80bc 2e87 3cbb 7fa5 a1bc a5b9 073b
00000080: bf43 11bb 90ce 91ba d4db 57bc 97e7 80bc
00000090: 2689 cbbb def3 613a 79f9 39bd e6a9 033c
000000a0: da5b 24bc c126 773b 008f 35bc c6aa 8dbc
000000b0: 8399 c63c 6382 d3bc 6248 f23c 4f03 38bc
000000c0: 833e 62bc d8df 803c ae83 0e3c 5c57 113c
000000d0: 6642 13bc ecc0 a7ba d332 6cbc 8d61 543c
000000e0: 5567 923d c8d9 ffbb daf4 b1bc 69a0 74bc
000000f0: 4083 d2bb 9762 8f3d 815a a03c 3b6a b1bc

sequential_1/conv2d_7/BiasAdd/ReadVariableOp f4 [32]
0.014422006 0.017903958 0.005060508 -0.023836365 -0.014048955 0.00260026 -0.010378724 0.026301675
-0.028580368 -0.0062897136 0.018044157 0.025477806 -0.0032325492 0.001831474 0.016611665 -0.00815852
-0.005409243 0.04277437 -0.0035725127 0.012323116 0.0069781677 0.0038274913 0.022472039 -0.009834263
-0.025534581 0.012197444 0.003524997 -0.032047484 -0.016668761 -0.020354439 0.0017033081 5.2473253e-05
00000000: 474a 6c3c 52ab 923c 9ed2 a53b 7b44 c3bc
00000010: 972d 66bc 2069 2a3b 860b 2abc 9c76 d73c
00000020: 6021 eabc f119 cebb 57d1 933c d5b6 d03c
00000030: 2dd9 53bb 120e f03a 3015 883c 50ab 05bc
00000040: 0540 b1bb 2e34 2f3d d120 6abb e5e6 493c
00000050: 1da9 e43b a6d6 7a3b 4817 b83c e31f 21bc
00000060: e62d d1bc cad7 473c a303 673b 3944 03bd
00000070: ed8c 88bc 5abe a6bc 8941 df3a ba16 5c38

sequential_1/conv2d_4/Conv2D f4 [32, 3, 3, 3]
-0.025399772 0.1535372 0.117722735 0.05458787 0.13088986 0.059112374 -0.036518 0.02411634
0.0019874664 0.09744076 0.10929885 -0.092101306 -0.13374165 0.08881723 0.0664268 -0.11107179
0.1296514 -0.052260175 -0.05468312 -0.1178548 -0.060587805 -0.035253394 0.10095427 -0.069077656
-0.11500715 0.12225774 -0.046646044 -0.14595138 0.03283136 -0.06550149 0.020195104 0.024229838
0.013323918 -0.051684666 -0.017280689 -0.069147766 -0.0028365615 0.08550801 -0.10235347 -0.1287252
-0.075434685 -0.09073449 0.07902505 0.025674814 0.13992164 -0.1224817 0.06468152 -0.11429908
0.13948922 0.081457034 0.00481025 0.10883058 0.0880698 0.05700714 0.015093285 0.13102923
0.05501584 -0.0047859466 -0.11450733 -0.05092686 0.0036417327 -0.12772088 -0.08970533 -0.10733458
0.117680326 -0.07687799 0.112612665 0.03291107 -0.068360925 -0.051165625 0.0025135828 0.1037974
0.055499353 -0.092553124 -0.05464379 0.09489404 0.01231466 0.09423684 0.088849895 -0.13316807
0.101665154 0.13343436 0.0051856553 -0.04710327 0.00464124 -0.10948948 0.022537952 -0.12104195
-0.042240106 -0.14240505 0.10597047 -0.034575384 -0.09103512 -0.06510845 0.11658149 0.10053652
0.012618688 0.0034504556 0.033765458 0.096633196 -0.061573736 0.07789568 0.11443454 -0.07580668
-0.08631792 -0.029026976 0.12973566 -0.13716877 0.018013604 0.010450575 -0.06171563 -0.005359826
0.089030236 -0.021297725 -0.08512117 -0.007564532 0.15639456 -0.048792835 -0.10058644 -0.0695663
0.07707503 -0.0806773 0.054948114 0.121529564 -0.089685574 0.097828604 -0.114565484 -0.012474716
-0.14293464 0.112166375 -0.08205942 0.12570202 -0.059524845 0.04357457 0.13338895 0.13874507
0.13133788 0.05149275 0.050618134 0.12837173 0.04023666 0.13780901 0.13314976 -0.05405849
0.087803766 0.13906357 -0.11685356 0.07305874 0.024135707 0.11816275 0.03930599 0.017669424
-0.11320555 0.14128721 0.08478042 -0.13194141 0.081956625 0.016712114 0.027940197 0.13281527
-0.023330897 -0.119473696 -0.044555385 -0.03872725 -0.11595696 0.1103678 0.03364918 0.13394947
0.0748607 -0.085996136 -0.034255035 0.104667716 -0.074760415 0.0026338256 -0.013195075 -0.062067546
-0.0009671526 -0.029642137 0.09638441 0.08624206 -0.019261952 0.021818567 -0.025126752 -0.009036325
-0.09968409 -0.08910187 -0.060016543 0.099672385 0.011887551 -0.033513688 -0.030767584 0.116367295
0.005553252 0.032817256 -0.10810767 0.04911361 -0.047859874 0.01976317 0.06752291 0.017469624
0.039593976 0.040135983 0.06050906 0.016919553 0.012908859 0.09811156 0.091591455 -0.036392257
0.066755444 -0.1015039 -0.09251209 -0.14329025 -0.1137822 0.13167775 -0.11815232 -0.11206457
0.033355735 -0.06752064 0.03444093 -0.040985376 0.052058145 0.06498814 -0.015306159 0.031531796
0.11412577 0.010830633 0.09944154 -0.10682999 -0.14937012 0.056761615 -0.023067074 -0.026848273
0.12272165 -0.08211108 0.010932998 0.108464025 0.027247135 0.004014552 -0.11761688 0.020565087
0.09370188 0.044880345 0.08087425 0.04272394 0.010487311 0.027680224 0.045667812 0.00091737957
-0.057257272 0.118002005 0.14102194 -0.03349521 -0.0979207 0.05161178 0.084549695 -0.055741247
00000000: 2f13 d0bc db38 1d3e 9e18 f13d 8897 5f3d
00000010: fe07 063e d11f 723d e693 15bd a18f c53c
00000020: 2740 023b 058f c73d 13d8 df3d 9c9f bcbd
00000030: 92f3 08be cfe5 b53d c60a 883d 9b79 e3bd
00000040: 56c3 043e c40e 56bd 68fb 5fbd db5d f1bd
00000050: eb2a 78bd dd65 10bd 1dc1 ce3d 9678 8dbd
00000060: de88 ebbd 4462 fa3d ec0f 3fbd 4774 15be
00000070: 2d7a 063d a525 86bd 3470 a53c a77d c63c
00000080: 904c 5a3c 4db3 53bd 3b90 8dbc 589d 8dbd
00000090: 9be5 39bb d31e af3d b29e d1bd 8ad0 03be
000000a0: 807d 9abd 01d3 b9bd e3d7 a13d fd53 d23c
000000b0: 9e47 0f3e afd7 fabd bf77 843d a315 eabd
000000c0: 43d6 0e3e f2d2 a63d 4d9f 9d3b 91e2 de3d
000000d0: f05d b43d 5280 693d d349 773c 872c 063e
000000e0: 4a58 613d 6ed3 9cbb d282 eabd af98 50bd
000000f0: 23aa 6e3b 43c9 02be 6eb7 b7bd 3bd2 dbbd
00000100: 6202 f13d 3572 9dbd 78a1 e63d c2cd 063d
00000110: d000 8cbd 0c93 51bd ecba 243b bb93 d43d
00000120: 4a53 633d 7e8c bdbd 2bd2 5fbd ce57 c23d
00000130: 6dc3 493c 3fff c03d eff6 b53d 365d 08be
00000140: d235 d03d 04a3 083e 6eec a93b 5cef 40bd
00000150: 8b15 983b 053c e0bd 83a1 b83c d8e4 f7bd
00000160: f603 2dbd a1d2 11be 0c07 d93d eb9e 0dbd
00000170: 9f70 babd 9457 85bd 47c2 ee3d 17e6 cd3d
00000180: 9dbe 4e3c 0a21 623b a64d 0a3d a0e7 c53d
00000190: be34 7cbd c587 9f3d a85c ea3d 8840 9bbd
000001a0: 73c7 b0bd fbc9 edbc 6dd9 043e f875 0cbe
000001b0: 4491 933c e338 2b3c 87c9 7cbd 7ba1 afbb
000001c0: 7c55 b63d 9178 aebc 0254 aebd e5df f7bb
000001d0: e525 203e ffda 47bd 4300 cebd c778 8ebd
000001e0: 83d9 9d3d 243a a5bd 4611 613d 7ee4 f83d
000001f0: 12ad b7bd 5d5a c83d 4fa1 eabd c062 4cbc
00000200: 755d 12be 7cb7 e53d c50e a8bd 08b8 003e
00000210: 53d0 73bd 407b 323d 1d97 083e 3013 0e3e
00000220: 707d 063e 10ea 523d f654 4f3d e173 033e
00000230: 32cf 243d ce1d 0d3e 6958 083e 6f6c 5dbd
00000240: 76d2 b33d ae66 0e3e eb50 efbd d29f 953d
00000250: 3fb8 c53c 50ff f13d 51ff 203d 78bf 903c
00000260: 50d8 e7bd 98ad 103e 5ba1 ad3d a61b 07be
00000270: e0d8 a73d d8e7 883c d7e2 e43c ba00 083e
00000280: 7020 bfbc a0ae f4bd b57f 36bd 77a0 1ebd
00000290: d87a edbd 8308 e23d b9d3 093d 0d2a 093e
000002a0: 9150 993d be1e b0bd 024f 0cbd 075c d63d
000002b0: fd1b 99bd 439c 2c3b 2830 58bc 8a3a 7ebd
000002c0: 8388 7dba 11d4 f2bc 3165 c53d ad9f b03d
000002d0: 3ecb 9dbc dabc b23c 9ed6 cdbc 180d 14bc
000002e0: 2c27 ccbd 0b7b b6bd e8d3 75bd 0921 cc3d
000002f0: 01c4 423c a645 09bd 4d0c fcbc fa51 ee3d
00000300: 0ef8 b53b 636b 063d 8e67 ddbd 5a2b 493d
00000310: b708 44bd 5fe6 a13c 7449 8a3d 751c 8f3c
00000320: 4b2d 223d a165 243d 59d8 773d e09a 8a3c
00000330: ae7f 533c b7ee c83d 4d94 bb3d 0c10 15bd
00000340: 14b7 883d 47e1 cfbd fb76 bdbd aeba 12be
00000350: a406 e9bd 88d6 063e d8f9 f1bd 1c82 e5bd
00000360: 06a0 083d 4348 8abd ef11 0d3d 48e0 27bd
00000370: ec3a 553d 8018 853d afc6 7abc 7c27 013d
00000380: c6ba e93d f872 313c 02a8 cb3d afc9 dabd
00000390: 7bf4 18be de7e 683d 29f7 bcbc e9f0 dbbc
000003a0: 7d55 fb3d db29 a8bd 5120 333c 6322 de3d
000003b0: 6235 df3c 818c 833b 1ee1 f0bd 1d78 a83c
000003c0: c5e6 bf3d 74d4 373d 66a1 a53d 4cff 2e3d
000003d0: f8d2 2b3c a3c1 e23c 2c0e 3b3d 4d7c 703a
000003e0: 9a86 6abd 09ab f13d 0e68 103e 4632 09bd
000003f0: a68a c8bd e066 533d 6428 ad3d ef50 64bd

sequential_1/conv2d_5/Conv2D f4 [64, 3, 3, 32]
-0.03486404 0.07087335 0.02193396 0.045856267 0.032727934 -0.059996184 0.028607922 0.054415494
-0.032489866 0.09777908 -0.05402038 0.09348839 0.033081315 -0.017773742 0.10503 -0.042306293
0.06616285 0.01799019 0.013844813 0.042672224 0.075666435 -0.04568486 0.03527655 -0.04173604
0.13301411 0.046140503 -0.014100419 0.12308089 -0.078140005 0.16436772 -4.9038958e-05 -0.0075173234
-0.035802074 -0.0034645854 -0.096121795 -0.066890046 0.06787129 -0.030952489 0.0022760213 0.024441062
-0.007433412 0.10503308 -0.053396683 0.11611286 0.009793512 -0.052070126 0.036828525 0.10386903
0.029028997 -0.0017969789 -0.114011586 0.08203053 -0.055124197 0.046970278 0.12295827 0.08295832
0.0862516 -0.023920922 -0.04647489 0.0031940343 -0.020251276 -0.023036562 -0.07415893 0.043094452
-0.09819835 0.07047313 0.013472183 -0.10137538 0.018975925 -0.06296071 0.03478197 -0.01541577
-0.11768066 0.07193987 0.04279667 0.11049596 -0.015666222 0.0028717762 0.03832233 0.03393332
0.01699547 -0.070112206 -0.018959865 0.10461751 -0.0069888495 -0.050198603 0.11533468 0.07380138
0.04364943 0.029143875 -0.0026261914 0.0123200575 -0.11488637 0.04299376 0.015213981 -0.07100627
-0.016240269 0.011157671 0.026048372 0.032732036 0.038201805 0.06804465 0.03541042 0.03518916
-0.0055503524 0.14074025 0.07905096 0.185344 0.013710846 -0.074562706 0.18953341 0.059116986
-0.09678248 -0.08797947 -0.098738156 0.041272968 -0.023442868 -0.088696845 0.019794315 -0.028910274
0.14878117 0.1284756 0.07456767 -0.0023854556 0.03398412 0.04551131 0.08089399 -0.027311811
-0.036442805 0.053509217 0.11073133 0.047515832 0.0953829 0.041165832 0.021354783 0.050350863
0.021996116 0.024832554 0.003952033 0.18366972 -0.03397775 -0.010537493 0.18001436 0.01448558
-0.023070041 0.008529791 -0.06628689 0.15169534 0.041819025 -0.0010173135 0.026887793 0.047200337
0.13144475 0.014045964 -0.05678309 0.15600888 0.016824417 -0.0421941 0.0224469 -0.08680676
0.033792842 0.10924038 0.08671878 0.08836367 0.07235976 -0.052307993 -0.033903155 -0.064896986
-0.09806955 0.17832269 0.0068991953 0.096739165 -0.038934253 -0.069859475 0.26022184 0.06513239
0.037404034 -0.10231462 -0.07164124 0.1163291 0.053217392 -0.01379452 -0.009207584 0.069862254
0.17037882 0.044730436 -0.048736084 0.023797682 0.012225302 0.010079341 -0.031774126 -0.06376002
0.057482496 0.09249836 0.11256882 0.11791177 0.03174984 -0.07251688 -0.042441458 0.05607374
-0.043987762 0.02842446 0.07109521 0.17683873 -0.022830492 0.03597984 0.18488108 0.022713674
-0.07817859 0.03963733 -0.0034348199 0.070345536 -0.003892306 -0.044593602 0.080062985 0.080088735
0.07350399 0.09840966 0.051223803 0.14652497 -0.09633659 0.039468575 0.006069967 0.0021189223
-0.086717956 0.1346879 0.044168293 0.1463958 0.1005898 -0.0056318026 -0.058187738 -0.015589801
-0.06731175 0.12046991 0.0793542 0.044109568 -0.017605642 0.051080424 0.19560824 0.09486077
0.021163275 0.043473497 0.002188578 0.063221656 -0.046387114 -0.1145822 0.07079169 0.08085737
0.030087214 0.121272825 0.01418058 0.12374361 -0.028775813 0.16291307 0.061740473 -0.06914459
00000000: 98cd 0ebd 0c26 913d d9ae b33c c8d3 3b3d
00000010: ba0d 063d 8fbe 75bd 295b ea3c c8e2 5e3d
00000020: 1814 05bd 6640 c83d 7944 5dbd d776 bf3d
00000030: 4680 073d 3d9a 91bc f819 d73d 5d49 2dbd
00000040: 6380 873d 2a60 933c 5bd5 623c 12c9 2e3d
00000050: 01f7 9a3d 0c20 3bbd 257e 103d 69f3 2abd
00000060: da34 083e d3fd 3c3d 7205 67bc d511 fc3d
00000070: de07 a0bd 0350 283e 2eaf 4db8 e153 f6bb
00000080: 32a5 12bd 190e 63bb 81db c4bd a6fd 88bd
00000090: 1a00 8b3d 1390 fdbc 4d29 153b 9f38 c83c
000000a0: fb93 f3bb 951b d73d 7bb6 5abd 94cc ed3d
000000b0: f774 203c 7c47 55bd 82d9 163d 49b9 d43d
000000c0: 38ce ed3c 9b88 ebba e87e e9bd 9fff a73d
000000d0: e9c9 61bd e863 403d 8cd1 fb3d 0de6 a93d
000000e0: aea4 b03d cff5 c3bc 745c 3ebd 0153 513b
000000f0: 01e6 a5bc 2cb7 bcbc a3e0 97bd cf83 303d
00000100: 371c c9bd 3754 903d 6eba 5c3c e59d cfbd
00000110: 6673 9b3c 8bf1 80bd 8a77 0e3d 6d92 7cbc
00000120: 8f02 f1bd 3655 933d 904b 2f3d b54b e23d
00000130: 7356 80bc 6934 3c3b e0f7 1c3d aafd 0a3d
00000140: 153a 8b3c fd96 8fbd b851 9bbc b541 d63d
00000150: b802 e5bb 0d9d 4dbd 9734 ec3d 2e25 973d
00000160: bfc9 323d 23bf ee3c 2e1c 2cbb 11da 493c
00000170: 8c49 ebbd 3a1a 303d 1044 793c bc6b 91bd
00000180: 500a 85bc aace 363c 6563 d53c 0712 063d
00000190: 7f79 1c3d fe5a 8b3d 840a 113d 8222 103d
000001a0: bbdf b5bb 361e 103e 78e5 a13d d1ca 3d3e
000001b0: 75a3 603c 55b4 98bd 0c15 423e a724 723d
000001c0: e535 c6bd 952e b4bd 3b37 cabd d80d 293d
000001d0: 420b c0bc b1a6 b5bd b027 a23c 3dd5 ecbc
000001e0: 175a 183e 1c8f 033e efb6 983d 4e55 1cbb
000001f0: ef32 0b3d 116a 3a3d c0ab a53d 05bd dfbc
00000200: 0d45 15bd 7b2c 5b3d 1cc7 e23d f69f 423d
00000210: 1c58 c33d 819d 283d 3af0 ae3c b53c 4e3d
00000220: 3331 b43c a46d cb3c 0e80 813b ea13 3c3e
00000230: 412c 0bbd 73a5 2cbc af55 383e ed54 6d3c
00000240: 62fd bcbc 89c0 0b3c 6cc1 87bd 0656 1b3e
00000250: 6d4a 2b3d 6057 85ba ca43 dc3c 2455 413d
00000260: 7499 063e 0b21 663c 6395 68bd cbc0 1f3e
00000270: 5cd3 893c b8d3 2cbd 90e2 b73c bec7 b1bd
00000280: 5d6a 0a3d 6cb9 df3d 9e99 b13d 03f8 b43d
00000290: 5b31 943d e840 56bd 09de 0abd b6e8 84bd
000002a0: b0d8 c8bd 399a 363e a512 e23b 2f1f c63d
000002b0: 8679 1fbd 7c12 8fbd cc3b 853e 2164 853d
000002c0: f934 193d 548a d1bd a4b8 92bd f43d ee3d
000002d0: 7bfa 593d 6902 62bc 68db 16bc f113 8f3d
000002e0: c977 2e3e 4337 373d 7d9f 47bd 5bf3 c23c
000002f0: a24c 483c d223 253c 9625 02bd 9d94 82bd
00000300: c472 6b3d c86f bd3d 7b8a e63d ba7b f13d
00000310: 1f0c 023d bb83 94bd 18d7 2dbd 94ad 653d
00000320: 832c 34bd 6ada e83c 5e9a 913d 3615 353e
00000330: 0307 bbbc 995f 133d 7751 3d3e 0712 ba3c
00000340: 191c a0bd c15a 223d b71a 61bb 5211 903d
00000350: 0f16 7fbb c8a7 36bd 10f8 a33d 9005 a43d
00000360: 4389 963d 018b c93d 0dd0 513d a40a 163e
00000370: 1e4c c5bd cda9 213d 93e6 c63b 9edd 0a3b
00000380: 2f99 b1bd a0eb 093e d0e9 343d c8e8 153e
00000390: 0602 ce3d fc8a b8bb 4456 6ebd 5d6c 7fbc
000003a0: beda 89bd eeb8 f63d 7484 a23d 3cac 343d
000003b0: b539 90bc b539 513d 874d 483e 5d46 c23d
000003c0: 9b5e ad3c 4411 323d 3f6e 0f3b 5b7a 813d
000003d0: 6a00 3ebd 13aa eabd 3cfb 903d 8c98 a53d
000003e0: 7679 f63c e35d f83d aa55 683c 4a6d fd3d
000003f0: 41bb ebbc afd2 263e 94e3 7c3d ae9b 8dbd

sequential_1/conv2d_6/Conv2D f4 [64, 3, 3, 64]
-0.06850102 -0.013527716 -0.0064753 -0.026820889 -0.037670597 -0.06303934 -0.02647903 0.0632143
-0.010545815 0.008131055 0.12903145 0.05490571 -0.0035890576 -0.05089253 0.024262665 0.074501306
0.012165698 0.014258089 -0.041600663 -0.090116926 -0.05015926 -0.021306658 -0.08299998 0.020328507
0.030280454 0.08403356 -0.08055533 -0.011836065 0.024156693 -0.01387998 0.033530228 0.015588091
-0.042684242 0.06708997 -0.06153836 0.100130245 -0.032051876 0.116275616 0.004418862 0.060767394
0.078531295 0.010432579 0.08177808 -0.085219815 0.081251845 0.030045712 0.020581095 0.01931457
-0.10518136 -0.108035296 0.09025635 0.012086577 0.038570166 -0.082777165 0.016299166 -0.04120492
-0.067301795 0.015090756 0.06245616 0.021827288 -0.08492251 0.02620164 0.012286881 -0.027289016
0.03818915 -0.04979184 -0.023464117 -0.04385338 0.01826024 -0.018258005 0.042751793 0.008321556
0.1034826 0.06450658 0.09760092 -0.0060361326 -0.034109373 0.06843839 0.06845438 0.04427236
0.0752251 0.03007303 0.056221906 -0.063191324 -0.049344953 0.04200541 -0.011518356 -0.053901587
-0.010532608 0.061007872 -0.14353238 0.07427283 -0.008875142 0.014986564 -0.06221114 -0.053960357
-0.053856306 0.0017187843 0.07132507 0.12139311 -0.0048426837 0.032059196 -0.022324389 0.036558278
-0.007449176 0.11136297 -0.018056612 0.013434444 -0.051837116 0.049102854 0.026761178 -0.045395873
-0.02897133 0.039030086 0.007193474 0.0025853903 -0.05105286 0.07502797 0.055623766 0.04720656
-0.13305591 0.0041309153 0.021061216 -0.00021329714 0.04654252 0.016388578 -0.074824825 0.080728084
0.02588539 -0.037444156 0.09157616 -0.08279136 -0.016871575 -0.05265825 0.010403919 -0.042431146
0.08961504 0.013144571 0.11417048 -0.030488908 -0.07199718 0.070957616 0.029935528 -0.032195587
0.009824847 -0.041024763 0.069351636 0.045767337 -0.041433252 -0.011089459 0.03992399 -0.05757931
0.09873526 0.060489632 -0.05809171 0.097365275 0.015254786 0.043168955 0.0043775868 -0.010555221
0.039906558 0.06472364 0.016719079 0.11967142 0.02846074 0.07068947 0.07171345 0.08882127
0.09533084 0.051283937 0.045843173 -0.048123285 0.024656024 0.074173264 -0.024612894 -0.005397737
-0.034656506 0.046141457 0.005821284 0.06353856 -0.07257139 -0.021780675 0.08115617 0.046836004
-0.028192822 0.10293518 0.021163505 0.011445502 -0.10567395 0.047858324 -0.03215039 -0.0065641995
-0.06818478 -0.054516524 -0.0045515005 -0.021335082 -0.036760665 -0.0046660965 -0.0078059337 -0.033296254
0.088435695 -0.0049728104 0.06419814 -0.019485926 -0.08898644 0.05791941 0.110044114 -0.024499526
0.033057127 -0.0100697735 -0.045440722 0.030204032 -0.068701394 -0.08464002 -0.04348461 -0.044929184
-0.0010955142 0.046549667 -0.16225024 -0.13390769 0.059570435 -0.042316508 -0.020631153 0.053979024
-0.10331236 0.002484905 -0.0062336125 0.0063834884 -0.0259543 0.09917942 0.0092784995 -0.064796194
0.11116112 0.024618104 0.07280654 -0.10752814 -0.025679426 0.11894204 -0.030275058 0.0185673
-0.05036074 -0.12809366 -0.012393098 -0.05632641 0.04409238 -0.010929201 -0.009781798 -0.039092537
-0.12450177 -0.053777453 -0.036337856 0.0065841526 3.351915e-05 -0.05642391 -0.12026892 0.07511167
00000000: 434a 8cbd 5aa3 5dbc c12e d4bb 7bb7 dbbc
00000010: 7c4c 1abd c51a 81bd 8dea d8bc 8076 813d
00000020: 5bc8 2cbc 1e38 053c d220 043e cfe4 603d
00000030: 6536 6bbb af74 50bd 7fc2 c63c 2494 983d
00000040: a352 473c c29a 693c 7565 2abd 398f b8bd
00000050: cc73 4dbd 4d8b aebc e5fb a9bd f887 a63c
00000060: b70e f83c c919 ac3d 31fa a4bd 0eec 41bc
00000070: 42e4 c53c db68 63bc fe56 093d 3165 7f3c
00000080: acd5 2ebd 7766 893d a60f 7cbd 1611 cd3d
00000090: d448 03bd e921 ee3d 1acc 903b 3be7 783d
000000a0: 04d5 a03d 68ed 2a3c 447b a73d ba87 aebd
000000b0: 5e67 a63d 6d22 f63c af99 a83c 9739 9e3c
000000c0: 5369 d7bd 9c41 ddbd 52d8 b83d c706 463c
000000d0: c0fb 1d3d 1387 a9bd d485 853c 7dc6 28bd
000000e0: 86d5 89bd 383f 773c 08d2 7f3d 24cf b23c
000000f0: daeb adbd d2a4 d63c ea4e 493c 378d dfbc
00000100: 3a6c 1c3d 87f2 4bbd d237 c0bc 9a9f 33bd
00000110: 8096 953c d091 95bc 811c 2f3d 2357 083c
00000120: afee d33d 071c 843d fee2 c73d c0ca c5bb
00000130: 45b6 0bbd 6d29 8c3d cf31 8c3d ef56 353d
00000140: 9e0f 9a3d b75b f63c f148 663d 746a 81bd
00000150: ef1d 4abd dd0d 2c3d 7db7 3cbc e9c7 5cbd
00000160: f690 2cbc 64e3 793d 27fa 12be 5a1c 983d
00000170: 0b69 11bc 358a 753c 1cd1 7ebd 8905 5dbd
00000180: 6e98 5cbd d548 e13a e112 923d f39c f83d
00000190: 60af 9ebb 8150 033d a3e1 b6bc 22be 153d
000001a0: 3818 f4bb 4512 e43d 76eb 93bc 241c 5c3c
000001b0: 2853 54bd 1320 493d 423a db3c 06f1 39bd
000001c0: 4855 edbc 03de 1f3d 3cb7 eb3b a76f 293b
000001d0: ce1c 51bd 44a8 993d bfd5 633d aa5b 413d
000001e0: cf3f 08be a15c 873b 9288 ac3c 84a8 5fb9
000001f0: 5fa3 3e3d 5741 863c c23d 99bd c454 a53d
00000200: 990d d43c 0b5f 19bd 488c bb3d 848e a9bd
00000210: 4236 8abc 2db0 57bd 3375 2a3c 48cc 2dbd
00000220: 1788 b73d 545c 573c 36d2 e93d e0c3 f9bc
00000230: 4273 93bd 3a52 913d 5a3b f53c 85df 03bd
00000240: 65f8 203c 9509 28bd 3b08 8e3d 8876 3b3d
00000250: eab5 29bd 90b0 35bc 5687 233d 48d8 6bbd
00000260: b635 ca3d fac3 773d 93f1 6dbd 7267 c73d
00000270: 36ef 793c eed1 303d dc71 8f3b ceef 2cbc
00000280: 0f75 233d d48d 843d 73f6 883c 4a16 f53d
00000290: 7f26 e93c a4c5 903d 80de 923d ede7 b53d
000002a0: d13c c33d 1b0f 523d 0dc6 3b3d ec1c 45bd
000002b0: 6efb c93c 27e8 973d fba0 c9bc 80df b0bb
000002c0: fbf3 0dbd d3fe 3c3d 78c0 be3b 8120 823d
000002d0: 4fa0 94bd 636d b2bc 3535 a63d 1cd7 3f3d
000002e0: a2f4 e6bc aecf d23d 165f ad3c ea85 3b3c
000002f0: 956b d8bd 1707 443d 21b0 03bd 7f18 d7bb
00000300: 76a4 8bbd b84c 5fbd c124 95bb e9c6 aebc
00000310: 5a92 16bd 0ee6 98bb ebc8 ffbb a761 08bd
00000320: c61d b53d f5f2 a2bb 507a 833d f3a0 9fbc
00000330: 863e b6bd e73c 6d3d cf5e e13d 3bb3 c8bc
00000340: e966 073d b1fb 24bc 0d20 3abd 726e f73c
00000350: 51b3 8cbd bf57 adbd eb1c 32bd aa07 38bd
00000360: 5b97 8fba ddaa 3e3d ed24 26be 191f 09be
00000370: 2100 743d 1354 2dbd aa02 a9bc 1c19 5d3d
00000380: 6e95 d3bd cad9 223b 5543 ccbb 952c d13b
00000390: 1d9e d4bc 941e cb3d d904 183c deb3 84bd
000003a0: 71a8 e33d e8ab c93c 981b 953d b737 dcbd
000003b0: a95d d2bc e297 f33d 6603 f8bc 731a 983c
000003c0: 1047 4ebd fc2a 03be 6c0c 4bbc 86b6 66bd
000003d0: 369a 343d 6410 33bc d643 20bc 7f1f 20bd
000003e0: c9fa febd bf45 5cbd 01d7 14bd e0bf d73b
000003f0: ea96 0c38 c21c 67bd 8d4f f6bd 26d4 993d

sequential_1/conv2d_7/Conv2D f4 [32, 3, 3, 64]
0.20375179 0.06215282 -0.14347602 0.09635161 -0.04908894 -0.06877295 -0.053259663 -0.041706324
-0.16288628 0.018851746 -0.13364185 0.025901098 0.015463446 0.065219 0.056370538 0.053041313
-0.02346196 -0.08439314 -0.13386804 -0.12376559 -0.024730798 0.045848295 0.048889462 0.0024010292
0.11520598 0.15466525 0.14207342 -0.018944234 -0.03794423 0.07939538 0.0123343095 0.006976066
-0.06504195 -0.017523956 -0.0073361765 -0.047655724 0.07413013 -0.034571793 -0.06112601 -0.026643196
-0.02840533 0.12658897 -0.06225755 -0.063087545 -0.06351321 -0.13206206 0.0043339375 0.041556776
0.084621675 -0.07677862 0.07978686 -0.0824128 0.03803638 0.03935046 -0.0053273872 -0.02292111
0.123596735 0.03250481 0.06551741 -0.033302926 0.01910643 0.1135789 -0.024412373 -0.09329626
0.095071055 -0.017885638 -0.13650669 0.06714091 -0.009383651 -0.06856421 -0.06744278 -0.10569979
-0.11198754 0.05109666 -0.013874601 0.012102898 0.027032403 0.04036199 0.06497187 0.0494229
0.091798075 0.022348866 -0.1515418 0.021457236 -0.0783937 -0.022486933 -0.020585248 -0.030751511
-0.0027172351 0.16958481 0.16913497 -0.173556 0.019205766 0.11147324 -0.021167241 -0.14599375
-0.067858435 0.00450983 -0.0060747764 -0.012916528 0.03594973 -0.066374324 -0.0033910845 -0.10057155
0.082743034 0.094965704 0.048384435 -0.003959107 -0.05258307 0.008672684 0.053318538 -0.0010539346
0.04304612 -0.06882687 -0.0036740855 -0.029499775 -0.0066145444 -0.008009751 0.048747044 -0.067891784
0.10756789 -0.06552175 -0.012735552 -0.059047896 -0.044759806 0.05622576 0.079682544 -0.12856388
0.15346514 0.021697342 -0.03178926 0.1099495 -0.111113146 -0.061052967 -0.020879444 -0.1283655
0.024549922 0.1219492 0.0135001 0.060774717 -0.02995589 0.07974626 -0.046685103 0.02689287
-0.014506104 -0.00431523 -0.14964321 -0.033523276 0.015944492 -0.011931725 0.07996126 -0.0031027773
-0.077395596 0.045048412 0.099464215 -0.0016894824 -0.10632008 0.106133774 -0.123096764 -0.06010479
0.036632203 0.0066285552 -0.06562213 0.050424956 -0.05023511 -0.078720056 -0.0720426 -0.10337527
-0.08789984 0.043667868 0.036634002 0.006221796 0.04500116 -0.05628429 0.0036924835 0.050019816
0.16902675 -0.06494024 0.06486876 0.0005875753 0.022539418 -0.064227425 -0.031233508 0.105815634
-0.033481 -0.042891003 0.046070073 0.02601121 -0.08631737 -0.04374309 0.08099494 0.026601518
0.14164503 0.017141 -0.06699307 0.15221524 -0.1238183 0.058955286 0.026397707 -0.074951686
-0.11287611 0.14542674 -0.059663467 -0.05152816 -0.014283993 -0.01535453 0.055855703 0.012593509
0.0809155 -0.07552251 -0.09263311 -0.10810255 -0.006337057 0.013929572 0.051194523 -0.039325625
0.030665684 -0.05270635 0.07439859 -0.055158585 -0.1582825 0.020277897 -0.020003086 -0.072541386
0.035188284 -0.14809339 0.055370558 -0.077223085 0.020333188 -0.03243724 -0.14461872 0.032633297
-0.046668857 0.12894303 -0.05934918 0.028119871 0.033926018 -0.097735494 -0.03386019 -0.028385684
0.15347636 0.050477125 0.078837 0.008910376 0.0157452 0.018894747 0.04691672 -0.0820071
0.1128047 -0.066418596 0.036366288 0.009583891 -0.04120579 0.059660494 0.092235535 -0.1275498
00000000: 4fa4 503e f593 7e3d 61eb 12be fe53 c53d
00000010: 7c11 49bd d5d8 8cbd ce26 5abd 40d4 2abd
00000020: a9cb 26be fa6e 9a3c 69d9 08be 8a2e d43c
00000030: 655a 7d3c 8a91 853d cbe4 663d d941 593d
00000040: 4c33 c0bc 50d6 acbd b414 09be d078 fdbd
00000050: 3e98 cabc 6ccb 3b3d 5140 483d 965a 1d3b
00000060: 1df1 eb3d 9160 1e3e b27b 113e f030 9bbc
00000070: 696b 1bbd 0c9a a23d d815 4a3c 7c97 e43b
00000080: b734 85bd 668e 8fbc 4f64 f0bb a632 43bd
00000090: 8ad1 973d 279b 0dbd 445f 7abd d542 dabc
000000a0: 4bb2 e8bc 8aa0 013e c601 7fbd 0b34 81bd
000000b0: 3713 82bd 473b 07be b403 8e3b 7037 2a3d
000000c0: 214e ad3d 1c3e 9dbd 4b67 a33d 0bc8 a8bd
000000d0: 09cc 1b3d f32d 213d 5d91 aebb 0dc5 bbbc
000000e0: 4920 fd3d c323 053d fe2d 863d a668 08bd
000000f0: 1685 9c3c 0e9c e83d 75fc c7bc 1c12 bfbd
00000100: 9db4 c23d e784 92bc 69c8 0bbe 2c81 893d
00000110: e3bd 19bc 646b 8cbd 711f 8abd 2279 d8bd
00000120: b959 e5bd bb4a 513d 4b52 63bc 3c4b 463c
00000130: 0f73 dd3c 9d52 253d f90f 853d ab6f 4a3d
00000140: a100 bc3d f814 b73c c62d 1bbe 16c7 af3c
00000150: e08c a0bd 8436 b8bc 65a2 a8bc 98ea fbbc
00000160: a413 32bb a4a7 2d3e b831 2d3e aab8 31be
00000170: 6955 9d3c 154c e43d ec66 adbc 637f 15be
00000180: 5df9 8abd 32c7 933b eb0e c7bb d89f 53bc
00000190: 0640 133d 43ef 87bd f53c 5ebb 75f8 cdbd
000001a0: 2e75 a93d 617d c23d c22e 463d 66bb 81bb
000001b0: 5861 57bd e017 0e3c 8a64 5a3d 2d24 8aba
000001c0: 2151 303d 1af5 8cbd edc8 70bb 83a9 f1bc
000001d0: d2be d8bb 553b 03bc fbaa 473d d90a 8bbd
000001e0: 8e4c dc3d 4430 86bd c7a8 50bc 35dc 71bd
000001f0: 0f56 37bd fc4c 663d 9a30 a33d 40a6 03be
00000200: f725 1d3e a0be b13c 7535 02bd 342d e13d
00000210: 4a8f e3bd ad12 7abd 5e0b abbc 3f72 03be
00000220: eb1c c93c 81c0 f93d 862f 5d3c e9ee 783d
00000230: 0e66 f5bc 0252 a33d e138 3fbd 704e dc3c
00000240: 03ab 6dbc c666 8dbb 123c 19be b44f 09bd
00000250: 069e 823c 487d 43bc bbc2 a33d f757 4bbb
00000260: 9581 9ebd af84 383d e5b3 cb3d 9f71 ddba
00000270: 58be d9bd aa5c d93d 281a fcbd 7130 76bd
00000280: a60b 163d 5a34 d93b e564 86bd 668a 4e3d
00000290: 55c3 4dbd fb37 a1bd 128b 93bd 6ab6 d3bd
000002a0: d504 b4bd 14dd 323d 890d 163d 35e0 cb3b
000002b0: 2353 383d 5b8a 66bd 98fd 713b 94e1 4c3d
000002c0: 5915 2d3e 63ff 84bd ead9 843d 8307 1a3a
000002d0: 96a4 b83c ab89 83bd 6add ffbc deb5 d83d
000002e0: 6023 09bd 7aae 2fbd f9b3 3c3d 7615 d53c
000002f0: 29c7 b0bd f42b 33bd ade0 a53d 6deb d93c
00000300: 650b 113e 486b 8c3c aa33 89bd 50de 1b3e
00000310: 7394 fdbd 197b 713d 0140 d83c 4580 99bd
00000320: 972b e7bd bfea 143e ae61 74bd 310f 53bd
00000330: 6907 6abc 9191 7bbc f3c8 643d 0155 4e3c
00000340: 07b7 a53d 8cab 9abd 6eb6 bdbd df64 ddbd
00000350: 16a7 cfbb dc38 643c 59b1 513d e813 21bd
00000360: 9a36 fb3c 9de2 57bd 4a5e 983d f8ed 61bd
00000370: cf14 22be d51d a63c 83dd a3bc 9490 94bd
00000380: 9721 103d cba5 17be 3dcc 623d 2327 9ebd
00000390: c991 a63c e9dc 04bd ee16 14be 7eaa 053d
000003a0: d827 3fbd a409 043e 2018 73bd a55b e63c
000003b0: 02f6 0a3d 8c29 c8bd fcb0 0abd 1889 e8bc
000003c0: e828 1d3e 1ac1 4e3d 4b75 a13d d3fc 113c
000003d0: 14fc 803c 28c9 9a3c bf2b 403d 57f3 a7bd
000003e0: 2706 e73d 7906 88bd d1f4 143d c105 1d3c
000003f0: 67c7 28bd 905e 743d fce5 bc3d 6a9c 02be

sequential_1/dense_3/BiasAdd/ReadVariableOp f4 [5]
-0.007951775 -0.16157047 0.07309558 0.03795308 0.04898018
00000000: 2948 02bc bb72 25be 23b3 953d b074 1b3d
00000010: 719f 483d

sequential_1/dense_2/BiasAdd/ReadVariableOp f4 [64]
0.018616201 -0.0028412535 0.05935324 0.0062849596 -0.025815012 -0.008950619 -0.043964483 0.041415703
0.038186092 0.015640864 -0.02912063 0.037001055 0.0023105282 0.112759076 0.04333932 -0.0011692111
0.017109219 -0.014313523 0.0010606662 0.011730441 0.024391206 0.06060158 -0.02557912 -0.006538351
-0.033462353 0.03330824 -0.021917494 0.013713444 0.004594077 0.0025395167 -0.051919267 0.010627906
-0.035654277 -0.007212587 0.009287087 0.05317997 0.02918269 -0.01436037 0.065157235 -0.026037598
0.021992404 -0.01344206 0.04122496 0.027095847 -0.026233245 0.0015761062 -0.010985472 0.03152433
0.03241645 -0.029346043 0.07091788 -0.008992594 0.05036978 0.006991236 0.036939543 0.019437607
0.062286504 0.056279108 -0.040694643 -0.018546013 -0.006284832 -0.022175375 0.054150727 -0.038235646
00000000: 0181 983c 5334 3abb 621c 733d 10f2 cd3b
00000010: 017a d3bc 9ea5 12bc 1a14 34bd 83a3 293d
00000020: 0569 1c3d 4521 803c 638e eebc 6b8e 173d
00000030: 3b6c 173b 3bee e63d 9284 313d 3740 99ba
00000040: a228 8c3c 4483 6abc 0d06 8b3a 0931 403c
00000050: 11d0 c73c 5d39 783d 4d8b d1bc aa3f d6bb
00000060: d20f 09bd 396e 083d 518c b3bc 5aae 603c
00000070: e989 963b 056e 263b 4ca9 54bd ab20 2e3c
00000080: 380a 12bd 9157 ecbb de28 183c 3dd3 593d
00000090: 8910 ef3c c247 6bbc 2871 853d cd4c d5bc
000000a0: 6a29 b43c 163c 5cbc 81db 283d 1cf8 dd3c
000000b0: 1ae7 d6bc 5995 ce3a 69fc 33bc a81f 013d
000000c0: 1dc7 043d 1d67 f0bc 653d 913d ac55 13bc
000000d0: 8b50 4e3d bd16 e53b eb4d 173d 9e3b 9f3c
000000e0: 2220 7f3d ec84 663d 6daf 26bd cfed 97bc
000000f0: fef0 cdbb 22a9 b5bc 27cd 5d3d fb9c 1cbd

sequential_1/dense_2/MatMul f4 [64, 1568]
0.049337413 -0.030530093 -0.03248631 0.026581243 -0.05332007 -0.04125448 0.0005487429 0.014765
-0.058905 -0.021980273 0.050342254 0.04452413 0.03649761 -0.023764547 0.040246356 -0.04171413
-0.044275317 0.0016528944 -0.041738633 0.08246383 0.062964246 -0.05189248 0.053918168 -0.012789164
0.024671381 -0.028317373 -0.03140415 0.0073278625 -0.011548061 0.059557237 -0.013248721 0.04618863
0.024521299 0.000106230014 0.036520727 -0.072115816 0.004103312 0.065869324 -0.022686642 -0.045126643
-0.1769994 -0.051437322 -0.041548006 0.047199715 0.03125622 0.008908732 -0.0012280492 -0.0041105896
0.02812816 -0.0864598 -0.02245849 -0.0078074695 -0.030663362 -0.066944204 -0.01333306 0.04182476
0.040241048 -0.02049894 -0.03186092 0.06110398 -0.15217385 0.033482976 0.10415989 0.0020408253
-0.069414556 -0.04171731 -0.02969742 -0.06702365 -0.029400622 0.017000359 -0.08041578 -0.11718509
-0.104508564 -0.03786368 -0.056680355 0.032143928 -0.044170853 0.01547461 -0.05181205 -0.05355715
-0.060497105 -0.1293398 -0.039346933 -0.037140947 -0.06989348 -0.060500372 -0.026816143 0.0036551678
-0.02618439 0.025410673 0.0173197 -0.029056484 -0.053436115 -0.020572739 0.01641571 0.014583655
-0.10988553 -0.01454378 -0.01073535 -0.0025251284 0.055212885 0.016379714 -0.09385324 -0.10211572
-0.11106885 0.018276582 -0.0740825 0.028250704 -0.056836043 0.013487316 0.021272168 0.044344746
-0.014039062 -0.15720092 0.004483121 -0.05303401 -0.06806539 -0.06608734 -0.024049148 -0.0030243718
-0.010539877 -0.033229504 0.018416535 0.070171505 -0.040831048 0.07390018 0.026521085 0.03994805
-0.10989544 0.016470598 -0.002255888 -0.07931743 0.03624567 0.023367712 -0.16551504 -0.122622006
-0.059258576 0.031799965 -0.15807626 -0.025999522 -0.025265623 0.009278714 0.011130785 -0.033888254
-0.023237761 -0.20822796 -0.09000691 0.016160624 -0.122273855 0.022392547 0.0140781095 -0.06972078
0.012224102 -0.044363804 -0.0008813388 -0.066407934 -0.073877685 0.011662919 0.008745652 0.046005424
-0.034321036 0.043063123 -0.010385934 -0.026954636 0.054152254 0.057948675 -0.052310962 -0.049071934
-0.046563756 -0.03290193 -0.060223084 0.051176455 -0.0051014535 -0.004837542 0.028413568 0.027550086
-0.010888284 -0.053237986 -0.010189318 0.018477507 -0.016928645 0.0041195326 0.019373588 -0.043159902
0.0019587837 -0.022790426 0.017049072 0.025260624 -0.027427364 0.021502154 0.09567041 0.065569244
0.019729571 0.011098504 0.0008306315 -0.020925563 -6.1752784e-05 -0.08782948 0.0020982302 0.0051635373
-0.053424947 -0.045774344 -0.03258707 0.05783515 -0.03351468 -0.053990606 -0.026832107 -0.051902734
0.030916775 0.011008114 0.032327276 -0.050349068 0.06511898 0.036535706 0.04260308 -0.008351269
0.04411734 -0.06002449 0.042745795 0.037569363 -0.046704512 -0.075861886 0.0071509583 -0.109266676
0.0653308 -0.06043761 -0.05490742 -0.10088199 -0.0490903 -0.05592561 -0.048148774 0.034189213
-0.10777354 -0.028776191 0.004618036 0.02031312 -0.012786194 0.012240257 -0.030176727 0.004599355
0.038824186 0.005755029 0.0026965912 0.0035464622 0.06487936 -0.093450464 0.04792537 0.057705708
0.010040554 -0.0015105576 -0.0047492366 0.053246398 -0.12971622 -0.04323118 0.04908005 -0.030104596
00000000: 0716 4a3d 3f1a fabc 5d10 05bd e8c0 d93c
00000010: 2566 5abd 75fa 28bd 83d9 0f3a e6e8 713c
00000020: 5f46 71bd f90f b4bc ae33 4e3d ef5e 363d
00000030: 857e 153d dead c2bc 5dd9 243d 70dc 2abd
00000040: 095a 35bd efa5 d83a 21f6 2abd cce2 a83d
00000050: 66f3 803d 368d 54bd 4cd9 5c3d a489 51bc
00000060: a31b ca3c d6f9 e7bc a3a1 00bd 911e f03b
00000070: 1434 3dbc 4af2 733d 2a11 59bc 4a30 3d3d
00000080: e4e0 c83c cec7 de38 c296 153d 75b1 93bd
00000090: 1375 863b 7fe6 863d 56d9 b9bc b7d6 38bd
000000a0: 553f 35be f1af 52bd 3e2e 2abd 7d54 413d
000000b0: 8606 003d eef5 113c 7ef6 a0ba 20b2 86bb
000000c0: 076d e63c d611 b1bd defa b7bc cdd5 ffbb
000000d0: bb31 fbbc 0b1a 89bd e872 5abc 7150 2b3d
000000e0: ccd3 243d 65ed a7bc 9980 02bd 2b48 7a3d
000000f0: 76d3 1bbe 7225 093d c851 d53d 5ebf 053b
00000100: 3829 8ebd c5df 2abd 0148 f3bc b243 89bd
00000110: 93d9 f0bc 5644 8b3c 07b1 a4bd bdfe efbd
00000120: 9608 d6bd f216 1bbd a929 68bd 5aa9 033d
00000130: 7fec 34bd 3889 7d3c df38 54bd be5e 5bbd
00000140: d0cb 77bd a771 04be 402a 21bd 1b21 18bd
00000150: 5024 8fbd 3dcf 77bd 87ad dbbc 8a8b 6f3b
00000160: a580 d6bc 0b2a d03c 0be2 8d3c dd07 eebc
00000170: d4df 5abd 2988 a8bc 3d7a 863c 48f0 6e3c
00000180: aa0b e1bd 0949 6ebc 52e3 2fbc a07c 25bb
00000190: e826 623d c02e 863c 2136 c0bd 0c22 d1bd
000001a0: 1178 e3bd c5b8 953c 91b8 97bd 056e e73c
000001b0: e9cc 68bd e7f9 5c3c f842 ae3c d6a2 353d
000001c0: 1804 66bc 47f9 20be 25e7 923b 313a 59bd
000001d0: de65 8bbd cd58 87bd b802 c5bc 8a34 46bb
000001e0: 73af 2cbc a91b 08bd 46de 963c 14b6 8f3d
000001f0: 753e 27bd fa58 973d bf42 d93c 91a0 233d
00000200: dc10 e1bd 59ed 863c 85d7 13bb 2d71 a2bd
00000210: 5776 143d a56d bf3c c67c 29be 3f21 fbbd
00000220: 1fb9 72bd ae40 023d bede 21be f3fc d4bc
00000230: daf9 cebc bf05 183c e55d 363c 69ce 0abd
00000240: 1e5d bebc b639 55be 8b55 b8bd 4963 843c
00000250: b76a fabd 9370 b73c dfa7 663c c5c9 8ebd
00000260: 9a47 483c d2b6 35bd a509 67ba e200 88bd
00000270: 2f4d 97bd d415 3f3c ec49 0f3c 2f70 3c3d
00000280: 3794 0cbd f562 303d c429 2abc f8cf dcbc
00000290: c1ce 5d3d 975b 6d3d 0544 56bd a7ff 48bd
000002a0: a3b9 3ebd 2dc4 06bd 7bac 76bd 679e 513d
000002b0: 182a a7bb 3e84 9ebb 92c3 e83c b8b0 e13c
000002c0: c664 32bc 1310 5abd 19f1 26bc 245e 973c
000002d0: f1ad 8abc 25fd 863b 5cb5 9e3c 70c8 30bd
000002e0: f05e 003b fdb2 babc 7faa 8b3c 5eef ce3c
000002f0: 5aaf e0bc 4925 b03c d9ee c33d 2b49 863d
00000300: e99f a13c 80d6 353c bdbe 593a 166c abbc
00000310: 4681 81b8 f1df b3bd 7682 093b e432 a93b
00000320: 1ed4 5abd e17d 3bbd 057a 05bd 8de4 6c3d
00000330: b046 09bd 4125 5dbd 02cf dbbc f697 54bd
00000340: 2d45 fd3c 605b 343c 9b69 043d d33a 4ebd
00000350: 1a5d 853d 77a6 153d 9180 2e3d c3d3 08bc
00000360: 62b4 343d 3ddc 75bd 3716 2f3d 55e2 193d
00000370: 3b4d 3fbd 7a5d 9bbd 9652 ea3b 35c7 dfbd
00000380: 28cc 853d 6d8d 77bd 9ae6 60bd 379b cebd
00000390: e912 49bd 4112 65bd a637 45bd fd09 0c3d
000003a0: 60b8 dcbd 0cbc ebbc e552 973b b367 a63c
000003b0: 2f7d 51bc 5c8b 483c 2f35 f7bc 30b6 963b
000003c0: 1c06 1f3d af94 bc3b 4bb9 303b c36b 683b
000003d0: 78df 843d f562 bfbd 654d 443d d25c 6c3d
000003e0: 2381 243c e7fd c5ba 7c9f 9bbb e518 5a3d
000003f0: 54d4 04be 2e13 31bd 2a08 493d ea9d f6bc

sequential_1/dense_3/MatMul f4 [5, 64]
0.34082004 0.28225064 0.100192 0.22221051 -0.13669956 -0.0383576 -0.025251081 -0.17050086
0.26137537 -0.37863758 -0.16850387 -0.19288766 0.16465469 0.2705318 -0.494871 -0.32565778
0.30842382 0.18016148 -0.29609698 0.12859711 0.21641146 0.26355168 -0.07657017 0.08973437
-0.101118736 -0.19570586 -0.0701788 0.26067734 -0.19075179 0.17748344 -0.025518624 0.0376466
-0.13847 -0.1713668 0.021772634 -0.2596578 -0.15624896 -0.2954571 0.06095913 -0.23417462
0.23739594 0.16161872 -0.21767867 0.031389017 0.04965128 0.4002775 0.36584637 -0.053021114
0.111898094 0.14134714 0.32796228 0.17390558 -0.06920718 0.0005737426 -0.19684193 0.19461179
0.19160491 -0.25612715 -0.15576214 -0.042924155 0.30310997 -0.039612006 0.16129112 -0.2396184
-0.21804224 0.22631006 -0.45750326 0.13279037 0.11484763 -0.24494025 0.15260383 -0.1659104
-0.37052497 -0.07631723 0.30604658 -0.23680292 -0.24955745 -0.13050924 -0.33789557 -0.29321042
0.26853243 0.2467477 0.018102748 0.20896125 -0.24219641 -0.514384 0.27423596 0.15707733
0.2901288 -0.051373124 0.2364105 -0.26062876 -0.030211136 -0.19404237 0.1257981 0.016302887
0.2719614 0.03654663 -0.39479753 -0.064754955 -0.1444486 0.21169351 -0.31355634 0.13475955
0.035011645 0.11896305 0.09706002 -0.2115591 0.13187471 0.06270328 -0.012378697 -0.40709502
0.087069325 0.18027636 -0.11694123 0.18679841 -0.1735962 0.17744955 -0.08495369 0.22569439
-0.40577814 -0.3273218 0.22758816 -0.23179393 0.2307548 0.27390075 -0.28396723 0.018134428
-0.30092525 -0.2516604 -0.15591955 -0.41610032 -0.27819493 0.25069934 0.20901872 -0.42854905
-0.011928156 0.111597605 -0.064669475 0.19670713 0.15977477 -0.18129879 -0.031302974 -0.20512758
-0.30213723 -0.021148266 0.07832661 -0.3732822 0.24656817 -0.14345843 0.25112557 -0.29916415
-0.10278211 0.26609936 -0.32127073 0.0015712262 0.26912844 -0.32933307 0.14728613 0.0071670557
0.15139449 0.25590533 0.08436069 -0.20286694 -0.08914611 0.23660485 -0.048138432 0.23814157
-0.3146751 0.10775179 0.11105659 -0.2405479 0.17899626 0.23870197 0.22533302 0.20041339
0.0054510008 -0.114014745 0.21830766 -0.041471917 -0.28270996 -0.34565932 0.22978115 -0.287866
-0.037195228 -0.007759593 -0.31761292 0.07377 -0.14275834 -0.23078024 0.209797 -0.15428643
0.17222552 -0.45762116 0.1526729 0.012445857 -0.5030225 0.1472659 0.16931543 0.32007822
-0.25648892 -0.37859 -0.19355857 -0.31995788 0.17121272 -0.14758764 -0.09030204 0.18071039
-0.21834342 -0.33742037 0.14924103 0.1486457 0.21338177 0.13791913 -0.38221994 0.010707985
-0.076233916 -0.1893416 0.24866855 0.1298223 -0.5176919 0.27607706 -0.057603903 -0.45965895
0.29664677 -0.48759818 0.026189499 0.32614478 0.37080112 0.26474136 0.14198047 -0.17043255
0.24731229 0.21894968 -0.6249278 0.17731862 0.14989258 -0.14644751 -0.1688946 0.13355605
-0.50272727 -0.12526278 -0.07015088 -0.3311943 0.35166487 0.1538493 0.008009293 -0.4215861
0.30648026 0.0065259268 -0.41135725 -0.3005497 0.17454381 -0.40736252 0.1559227 -0.18848023
00000000: f77f ae3e 2883 903e 7731 cd3d 278b 633e
00000010: f8fa 0bbe dc1c 1dbd 5bdb cebc c797 2ebe
00000020: fed2 853e c9dc c1be 478c 2cbe 5884 45be
00000030: 3d9b 283e 2583 8a3e bb5f fdbe 9ebc a6be
00000040: bae9 9d3e 407c 383e 069a 97be f6ae 033e
00000050: f79a 5d3e 3ff0 863e d2d0 9cbd a7c6 b73d
00000060: 5717 cfbd 1e67 48be e7b9 8fbd 8077 853e
00000070: 7054 43be 38be 353e 6f0c d1bc 5233 1a3d
00000080: 14cb 0dbe c77a 2fbe 865c b23c def1 84be
00000090: baff 1fbe 2746 97be 48b0 793d 79cb 6fbe
000000a0: ec17 733e 617f 253e 28e7 5ebe c591 003d
000000b0: 245f 4b3d 2cf1 cc3e 3750 bb3e ab2c 59bd
000000c0: d42a e53d 4ebd 103e acea a73e 4e14 323e
000000d0: 7ebc 8dbd 3767 163a ee90 49be 5048 473e
000000e0: 1434 443e 1923 83be 1c80 1fbe 3dd1 2fbd
000000f0: 3b31 9b3e 3340 22bd 8029 253e 875e 75be
00000100: 7746 5fbe d3bd 673e de3d eabe 33fa 073e
00000110: 3c35 eb3d 9ed1 7abe 2e44 1c3e 6ae4 29be
00000120: 73b5 bdbe 354c 9cbd 23b2 9c3e 777c 72be
00000130: fd8b 7fbe 37a4 05be a600 adbe ad1f 96be
00000140: 157d 893e 6eab 7c3e 374c 943c f0f9 553e
00000150: 5602 78be abae 03bf a868 8c3e e1d8 203e
00000160: c38b 943e a06c 52bd 9815 723e 2271 85be
00000170: 587d f7bc 0bb3 46be 38d1 003e a28d 853c
00000180: 863e 8b3e ebb1 153d e722 cabe 3f9e 84bd
00000190: 55ea 13be 2fc6 583e 758a a0be 68fe 093e
000001a0: 5f68 0f3d e6a2 f33d 67c7 c63d f3a2 58be
000001b0: 2a0a 073e 946a 803d 05d0 4abc c26e d0be
000001c0: 6751 b23d 5e9a 383e e27e efbd 1548 3f3e
000001d0: 34c3 31be 56b5 353e 33fc adbd 6e1c 673e
000001e0: 27c2 cfbe b996 a7be df0c 693e 635b 6dbe
000001f0: fc4a 6c3e b83c 8c3e 2764 91be a78e 943c
00000200: e012 9abe a2d9 80be 60a9 1fbe 1a0b d5be
00000210: 916f 8ebe aa5b 803e 0109 563e c86a dbbe
00000220: 506e 43bc 498d e43d 6e71 84bd 986d 493e
00000230: ff9b 233e 64a6 39be 8c37 00bd f70c 52be
00000240: bbb1 9abe 213f adbc b469 a03d d81e bfbe
00000250: 5e7c 7c3e c4e6 12be 8893 803e 0b2c 99be
00000260: 6d7f d2bd 2d3e 883e 997d a4be 9af1 cd3a
00000270: 34cb 893e 589e a8be 2dd2 163e 9fd9 ea3b
00000280: 2807 1b3e 0606 833e 4cc5 ac3d 5abc 4fbe
00000290: 3c92 b6bd 8b48 723e ce2c 45bd 62db 733e
000002a0: 181d a1be f8ac dc3d a371 e33d 3052 76be
000002b0: cc4a 373e 4a6e 743e b3bd 663e 2b39 4d3e
000002c0: 4f9e b23b 9080 e9bd 0b8c 5f3e 75de 29bd
000002d0: 5cbf 90be 42fa b0be c04b 6b3e 2c63 93be
000002e0: 065a 18bd 2f44 febb 299e a2be ba14 973d
000002f0: 3e2f 12be a851 6cbe 06d5 563e 43fd 1dbe
00000300: e35b 303e 524d eabe 4956 1c3e b5e9 4b3c
00000310: 15c6 00bf dfcc 163e 0661 2d3e 4be1 a33e
00000320: 8452 83be 8cd6 c1be 3834 46be 85d1 a3be
00000330: 6352 2f3e 3721 17be 47f0 b8bd 250c 393e
00000340: 6b95 5fbe 5dc2 acbe a4d2 183e 9436 183e
00000350: c080 5a3e ac3a 0d3e 55b2 c3be 8b70 2f3c
00000360: 8720 9cbd c4e2 41be f8a2 7e3e 23f0 043e
00000370: 7587 04bf f959 8d3e 12f2 6bbd 6b58 ebbe
00000380: 16e2 973e 78a6 f9be 5c8b d63c 73fc a63e
00000390: a5d9 bd3e 2e8c 873e 5463 113e df85 2ebe
000003a0: 6f3f 7d3e 5834 603e 45fb 1fbf 0393 353e
000003b0: 717d 193e 56f6 15be b5f2 2cbe ebc2 083e
000003c0: bcb2 00bf e344 00be 44ab 8fbd 4d92 a9be
000003d0: 6b0d b43e ac8a 1d3e 6939 033c 22da d7be
000003e0: fbea 9c3e 71d7 d53b 6b9d d2be a6e1 99be
000003f0: 9dbb 323e d291 d0be 33aa 1f3e f600 41be
